Results/Models/double_dqn.pth (torch_old, 28391 bytes, 6 tensors)

fc1.weight f4 [64, 37]
0.16406706 -0.080364965 -0.14315817 -0.294141 -0.30781195 0.13265507 -0.010381456 0.13174713
-0.21589205 0.11023718 -0.008076832 -0.021786392 -0.045047417 -0.25869957 -0.7642322 0.01761409
-0.0090054665 0.0680024 0.10808706 -0.15299436 0.02828465 0.20001766 0.017306501 0.035505284
-0.035685897 -0.21729107 0.12007297 -0.07335116 0.071837105 -0.07094882 -0.043857876 -0.040715534
0.12331843 -0.27289823 0.060492795 -0.10783916 -0.075748175 0.10021028 0.091983296 0.002231856
0.2212482 0.14377058 0.25364947 -0.39851403 -0.30010545 -0.33219284 -0.9362911 0.011209834
-0.017853662 0.028401414 0.1458886 0.13964939 0.020487623 0.121404156 -0.05124173 0.057752155
0.17695212 -0.13803703 -0.07157144 -0.13199753 0.07687356 0.2610703 -0.12265642 0.08816695
0.018299043 0.042377405 -0.006780673 0.14659266 0.078462675 0.07837757 -0.16228682 -0.19149831
-0.008079028 -0.0067191836 0.05495459 0.18732344 0.07890752 0.0820478 -0.15859178 -0.427882
0.112196 0.23555335 0.028804023 -0.043417472 -0.008745574 -6.6820256e-05 0.0049340716 0.14823613
0.35679698 -0.26704288 0.0971204 0.19107725 0.13033997 0.07113705 -0.043122467 -0.04390394
0.09424173 0.0042292764 0.14347196 -0.34025478 0.30674225 0.16724955 0.047471248 -0.16628821
-0.2180354 -0.09117981 0.022801097 0.053151533 0.09468303 0.030388627 -0.020990085 0.03874951
-0.0069719427 0.19039968 0.07462163 -0.10075077 -0.09101735 0.055409536 0.107920915 -0.0013183309
-0.0005384225 0.023581492 -3.9165534e-05 0.0968372 -0.11331389 0.05773042 -0.051009588 0.003704041
0.020986872 -0.19905625 -0.26879305 0.26791993 -0.22717537 -0.053412918 0.0033199303 -0.5872967
-0.011932374 0.079844266 0.087368876 0.00465198 0.066310726 0.11746061 0.19735257 -0.024803495
-0.07850997 -0.11598362 0.19713214 0.0006898323 0.024620187 -0.13213362 -0.09444786 -0.11712503
-0.114034645 0.1464301 0.28507936 -0.13364385 0.096814 0.21057808 0.14195742 0.07015642
-0.07911023 -0.14498673 -0.31406474 0.03761907 0.10697377 -0.07877264 -0.10304104 0.049761068
-0.11014359 0.051025026 0.119721316 0.2849292 0.40974057 0.11967289 0.06556114 0.04117316
0.0016534079 0.15052642 0.17522162 0.061773572 -0.052942604 0.08488012 -0.04078969 -0.012958749
0.014262488 -0.0059727277 -0.012344837 0.06391814 0.10799044 0.13118261 0.35680738 -0.18262422
-0.1997482 -0.3810279 -1.5564384 0.014463623 -0.0030913644 -0.034673195 -0.11010745 -0.03769587
0.043981154 0.038989857 -0.0012136297 0.02447512 -0.079342656 0.12477538 0.051242847 0.17671047
0.11049231 0.19337992 -0.054655492 -0.0037754532 0.11395403 0.17595814 0.114975154 0.046019644
-0.035696026 -0.030066874 0.13536623 0.0068979557 0.014015034 0.0032567673 -0.034508724 -0.07014722
0.03855234 -0.051558398 -0.08265441 -0.18654253 0.060295153 -0.047318704 0.10670366 0.38982335
-0.09408821 0.063104264 0.06332667 0.12758952 0.07149484 -0.0953679 -0.2201128 0.05766703
0.18573742 0.3615136 0.04696676 -0.13911012 -0.04323528 -0.03088295 0.4914109 -0.24916653
-0.10836351 0.05016118 0.09489329 0.12540181 -0.03613299 0.08985358 -0.027060516 0.022772342
00000000: 3201 283e 6396 a4bd 0e98 12be a699 96be
00000010: 8799 9dbe bbd6 073e fc16 2abc b8e8 063e
00000020: ce12 5dbe 08c4 e13d b054 04bc 6079 b2bc
00000030: a483 38bd 4574 84be b9a4 43bf 6d4b 903c
00000040: aa8b 13bc d844 8b3d c05c dd3d 8eaa 1cbe
00000050: 36b5 e73c 6ed1 4c3e 5dc6 8d3c fd6d 113d
00000060: 602b 12bd 8d81 5ebe d1e8 f53d 2239 96bd
00000070: 551f 933d 9d4d 91bd 51a4 33bd 55c5 26bd
00000080: 5f8e fc3d 51b9 8bbe 4bc7 773d c7da dcbd
00000090: dc21 9bbd 0c3b cd3d bd61 bc3d 5544 123b
000000a0: e38e 623e 9838 133e 58de 813e 080a ccbe
000000b0: 6ca7 99be 2e15 aabe c6b0 6fbf 74a9 373c
000000c0: d841 92bc 15aa e83c d263 153e 4000 0f3e
000000d0: a9d5 a73c bea2 f83d d9e2 51bd 868d 6c3d
000000e0: f032 353e 9459 0dbe 0c94 92bd 5c2a 07be
000000f0: e36f 9d3d 02ab 853e 4a33 fbbd e090 b43d
00000100: e0e7 953c ee93 2d3d 6830 debb 631c 163e
00000110: 0ab1 a03d 6b84 a03d 842e 26be 2218 44be
00000120: e65d 04bc 992c dcbb 1018 613d b7d1 3f3e
00000130: 449a a13d ad08 a83d e265 22be 5913 dbbe
00000140: 04c7 e53d e634 713e 6af6 eb3c 85d6 31bd
00000150: 9949 0fbc da21 8cb8 fead a13b 36cb 173e
00000160: 18ae b63e d8b9 88be 0fe7 c63d c1a9 433e
00000170: d777 053e 4db0 913d 2fa1 30bd 9ed4 33bd
00000180: cf01 c13d be95 8a3b 50ea 123e e035 aebe
00000190: 520d 9d3e 7743 2b3e 3671 423d 7547 2abe
000001a0: ac44 5fbe 7bbc babd 5ec9 ba3c 6cb5 593d
000001b0: 2de9 c13d 92f1 f83c 66f3 abbc ceb7 1e3d
000001c0: e574 e4bb 22f8 423e 3ad3 983d 6b56 cebd
000001d0: 4e67 babd 1cf5 623d a405 dd3d d8cb acba
000001e0: ec24 0dba f92d c13c ac45 24b8 9552 c63d
000001f0: 1d11 e8bd bc76 6c3d 6eef 50bd 7fbf 723b
00000200: a9ec ab3c 67d5 4bbe 3e9f 89be cd2c 893e
00000210: a9a0 68be 81c7 5abd 3093 593b 1459 16bf
00000220: 0180 43bc 6485 a33d 74ee b23d a36f 983b
00000230: ebcd 873d 308f f03d cb16 4a3e b330 cbbc
00000240: d6c9 a0bd d288 edbd 02dd 493e ddd5 343a
00000250: 46b0 c93c 094e 07be e16d c1bd 3fdf efbd
00000260: ff8a e9bd c6f1 153e ecf5 913e efd9 08be
00000270: 6b46 c63d c8a1 573e 495d 113e 2bae 8f3d
00000280: 8b04 a2bd 6777 14be 18cd a0be 7416 1a3d
00000290: 1015 db3d 8d53 a1bd 2e07 d3bd 43d2 4b3d
000002a0: f692 e1bd 9eff 503d 7330 f53d 3de2 913e
000002b0: 84c9 d13e 0f17 f53d eb44 863d 30a5 283d
000002c0: 2ab7 d83a 9923 1a3e 4c6d 333e 4906 7d3d
000002d0: 58da 58bd a1d5 ad3d 1713 27bd ef50 54bc
000002e0: 36ad 693c dfb6 c3bb 0042 4abc 84e7 823d
000002f0: 182a dd3d bc54 063e 75af b63e d801 3bbe
00000300: cb8a 4cbe 1716 c3be 6039 c7bf d5f8 6c3c
00000310: 7d98 4abb 7b05 0ebd 0480 e1bd fc66 1abd
00000320: 9525 343d d4b3 1f3d a812 9fba 0c80 c83c
00000330: 677e a2bd 3c8a ff3d 05e4 513d 97f3 343e
00000340: cb49 e23d 6305 463e 70de 5fbd 986d 77bb
00000350: bb60 e93d 5f2e 343e 1878 eb3d 187f 3c3d
00000360: ff35 12bd ce4e f6bc 729d 0a3e 3f08 e23b
00000370: 509f 653c 7d6f 553b 0559 0dbd 58a9 8fbd
00000380: 0fe9 1d3d e62e 53bd b746 a9bd 0105 3fbe
00000390: 0df8 763d 42d1 41bd 7387 da3d ed96 c73e
000003a0: 52b1 c0bd cf3c 813d 6ab1 813d d4a6 023e
000003b0: e36b 923d 3f50 c3bd 4065 61be 4334 6c3d
000003c0: f331 3e3e 5018 b93e 3860 403d e272 0ebe
000003d0: 7a17 31bd 3efe fcbc 369a fb3e 8325 7fbe
000003e0: b0ed ddbd cf75 4d3d 6a57 c23d 5569 003e
000003f0: 3000 14bd 2705 b83d 04ae ddbc 108d ba3c

fc1.bias f4 [64]
0.14802495 -0.033281118 -0.13433915 -0.017030139 0.26093253 0.028446803 -0.115595475 0.012076245
-0.0711995 -0.13563365 0.19490147 0.16114548 0.12500627 0.0100519275 -0.09753412 -0.029963488
0.056060277 0.009120108 -0.02708905 -0.19377172 -0.20026644 0.03687873 0.004082828 -0.13120152
-0.100583695 0.03653761 -0.10354275 -0.10266642 0.10965698 0.1534367 -0.01138012 -0.21865433
0.12875271 -0.03413997 -0.11276882 0.017918056 -0.06081902 0.036954064 -0.03437152 -0.057203174
-0.06918169 0.0051293187 -0.08751087 0.18435149 0.035035543 -0.15764718 0.029105982 -0.17015783
-0.12985954 0.15743254 -0.18170543 -0.007861535 0.005805029 -0.07425243 -0.22734207 0.085998125
0.11937068 -0.072583415 -0.08967772 -0.12078365 0.020966867 -0.031885583 0.05936498 0.010709728
00000000: da93 173e c851 08bd 3490 09be ca82 8bbc
00000010: f398 853e 4509 e93c 52bd ecbd 71db 453c
00000020: 0bd1 91bd 8ce3 0abe 4094 473e 5203 253e
00000030: a501 003e d7b0 243c f8bf c7bd fd75 f5bc
00000040: 769f 653d 816c 153c dbe9 ddbc 186c 46be
00000050: a512 4dbe 270e 173d 3ec9 853b b159 06be
00000060: d3fe cdbd 76a8 153d 390e d4bd c642 d2bd
00000070: d793 e03d 831e 1d3e af73 3abc ece6 5fbe
00000080: c0d7 033e 5ad6 0bbd 57f3 e6bd e3c8 923c
00000090: 5d1d 79bd 255d 173d 27c9 0cbd e04d 6abd
000000a0: 21af 8dbd d813 a83b e638 b3bd a3c6 3c3e
000000b0: 6e81 0f3d 436e 21be ab6f ee3c db3d 2ebe
000000c0: e6f9 04be ff35 213e fd10 3abe abcd 00bc
000000d0: 1d38 be3b a811 98bd 5ccc 68be c91f b03d
000000e0: 9d78 f43d 9da6 94bd f4a8 b7bd 6b5d f7bd
000000f0: b5c2 ab3c 759a 02bd b128 733d db77 2f3c

fc2.weight f4 [64, 64]
0.052576922 0.06707978 0.09428662 0.1264831 0.07605231 -0.15257083 -0.028934846 -0.1017894
0.001886378 -0.06805147 -0.12799127 -0.06390376 0.088840514 0.059389777 -0.093458 0.039304696
-0.2610175 0.05365658 0.058096346 0.043405924 -0.25106323 -0.13561137 0.054744937 -0.116343796
-0.019871576 0.10734467 0.2048067 0.34552556 -0.1105417 -0.2631266 0.31217155 -0.31050104
0.12560233 0.19088903 -0.012911019 -0.019622248 0.08299425 0.09686544 -0.036094926 -0.040230565
-0.2260232 -0.038323402 0.1997827 -0.04014895 -0.040106528 0.03915438 0.02426809 -0.11192562
0.022301761 0.12176646 -0.11149018 0.049813338 -0.11268528 -0.063657045 -0.034852426 -0.11633359
0.07189633 -0.28066263 -0.4581872 -0.06977978 -0.11549661 0.038506363 0.14011526 0.2676633
0.17049816 0.0108207865 0.04524902 0.073550925 0.115248606 0.0583005 -0.21412408 0.027346363
0.1320276 -0.07342918 0.054617856 0.10375375 -0.0057589705 0.029826196 -0.11658683 -0.13932289
-0.070683606 0.5112489 -0.1254353 -0.01594053 0.020273263 -0.50933295 0.07124951 -0.08395068
0.021098366 -0.08915233 -0.17801856 -0.28785777 -0.026157182 0.0042068646 0.49305135 -0.106731184
0.03353968 0.008784166 0.011986188 0.0012848038 -0.045541443 -0.16758466 -0.14146441 -0.024330288
-0.16121784 -0.4220133 -0.048852485 -0.09648249 -0.080415994 -0.15521984 -0.09384038 -0.16781646
-0.20843716 -0.2470638 0.06168374 0.09636546 -0.10381355 -0.093033925 -0.032681502 0.13631167
-0.2829555 0.0054902136 0.102732785 0.10514386 -0.5564248 -0.013349786 -0.27555913 0.03679238
0.08998706 -0.08076738 -0.1420481 0.04670339 0.055496674 0.14096852 0.0023349246 -0.0005406403
0.054444663 -0.13554342 -0.174598 -0.029533427 0.20943289 0.14026438 0.06640941 -0.023933178
-0.081972994 -0.13317451 -0.013205928 0.0313527 -0.18089816 0.14078772 0.11230599 -0.066873476
-0.04333008 -0.116874576 0.08406119 0.4999822 0.06693564 0.18533102 0.56022626 -0.018721692
0.01573514 -0.0431108 -0.08834596 0.18047601 0.2639204 0.304808 0.0036196294 0.07599551
-0.0052796975 -0.0757443 0.045933597 -0.031573188 -0.16748652 0.05777763 0.020277204 0.05688146
-0.04649355 0.11547582 -0.13764572 -0.002215744 -0.017241016 0.3174293 -0.059766266 -0.07176461
0.037612263 -0.20817804 0.13182421 0.10437098 -0.19188006 -0.019837238 0.18047379 -0.019896818
-0.09474666 -0.14590538 -0.20415293 -0.08041259 -0.3298205 0.04201635 0.032728113 -0.028601864
-0.22891173 -0.26635277 -0.2115198 0.1982427 -0.33123004 0.055447523 -0.35340923 -0.039053638
-0.11559651 -0.0457011 -0.19159429 -0.17288685 0.11897242 0.097809635 -0.17828621 -0.23230468
0.18087322 0.018031739 -0.055109087 0.008825509 0.05109396 -0.30364692 0.055467688 -0.12885277
-0.23188747 -0.2164051 -0.25476384 0.080121495 -0.05897624 0.22550224 0.13926235 0.050240807
-0.05674696 0.18234518 -0.101964585 -0.32282504 -0.009592976 -0.0481097 -0.15528794 0.03898853
-0.22974601 0.108229384 -0.20315365 0.016159825 0.26361528 0.2965715 0.021410892 0.09072079
-0.021635987 -0.3342309 -0.021566585 -0.42702755 -0.45041376 0.14677337 -0.36022395 -0.015301213
00000000: e65a 573d 2061 893d 5819 c13d c984 013e
00000010: 50c1 9b3d 873b 1cbe c508 edbc f676 d0bd
00000020: 5840 f73a 925e 8bbd 2510 03be f9df 82bd
00000030: 04f2 b53d b242 733d e866 bfbd f6fd 203d
00000040: 16a4 85be 01c7 5b3d 6ff6 6d3d 69ca 313d
00000050: 5c8b 80be b5dd 0abe 3a3c 603d a845 eebd
00000060: b7c9 a2bc 86d7 db3d d9b8 513e bae8 b03e
00000070: b063 e2bd 88b8 86be f3d4 9f3e fef9 9ebe
00000080: e69d 003e 6a78 433e bd88 53bc d6be a0bc
00000090: e4f8 a93d 6361 c63d 46d8 13bd cec8 24bd
000000a0: a072 67be 00f9 1cbd d693 4c3e 3a73 24bd
000000b0: be46 24bd 5860 203d e0cd c63c 4239 e5bd
000000c0: 2fb2 b63c b260 f93d f754 e4bd 1209 4c3d
000000d0: 8ac7 e6bd a05e 82bd 6bc1 0ebd 4e40 eebd
000000e0: 623e 933d 03b3 8fbe 8397 eabe b4e8 8ebd
000000f0: 7d89 ecbd d9b8 1d3d 607a 0f3e 2a0b 893e
00000100: 1297 2e3e ab49 313c 0957 393d dea1 963d
00000110: 7607 ec3d 81cc 6e3d 5843 5bbe 7b05 e03c
00000120: 3e32 073e 0a62 96bd f9b6 5f3d d97c d43d
00000130: bfb5 bcbb 1156 f43c 13c5 eebd a9aa 0ebe
00000140: 91c2 90bd 35e1 023f 1c72 00be b795 82bc
00000150: 1d14 a63c a563 02bf 43eb 913d 56ee abbd
00000160: 7bd6 ac3c 7f95 b6bd 7f4a 36be 1862 93be
00000170: 9647 d6bc bdd9 893b 3a71 fc3e e195 dabd
00000180: e760 093d 76eb 0f3c b761 443c dd66 a83a
00000190: aa89 3abd 509b 2bbe 0cdc 10be 5050 c7bc
000001a0: 4a16 25be 2112 d8be 8b19 48bd 9d98 c5bd
000001b0: 24b1 a4bd f3f1 1ebe 632f c0bd 14d8 2bbe
000001c0: 8d70 55be 4bfe 7cbe 17a8 7c3d 415b c53d
000001d0: 339c d4bd 9288 bebd 0add 05bd 4995 0b3e
000001e0: 8bdf 90be 40e7 b33b 9165 d23d aa55 d73d
000001f0: db71 0ebf 10b9 5abc 1616 8dbe 9bb3 163d
00000200: 234b b83d 5e69 a5bd 0f75 11be 0e4c 3f3d
00000210: 7b50 633d 0d5a 103e 8905 193b c2b9 0dba
00000220: 5e01 5f3d e5cb 0abe d1c9 32be 16f0 f1bc
00000230: 9375 563e 77a1 0f3e a801 883d 830f c4bc
00000240: 75e1 a7bd e65e 08be ad5d 58bc b06b 003d
00000250: 5e3d 39be a82a 103e af00 e63d f6f4 88bd
00000260: e27a 31bd f05b efbd 4628 ac3d abfd ff3e
00000270: 8e15 893d 6ac7 3d3e fd6a 0f3f 3c5e 99bc
00000280: fbe6 803c f394 30bd baee b4bd b4ce 383e
00000290: 9320 873e cb0f 9c3e 4e37 6d3b 89a3 9b3d
000002a0: 5001 adbb d41f 9bbd de24 3c3d e352 01bd
000002b0: 9681 2bbe 3ca8 6c3d 611c a63c 89fc 683d
000002c0: 0570 3ebd 967e ec3d 00f3 0cbe 0436 11bb
000002d0: 083d 8dbc 1886 a23e 79cd 74bd 53f9 92bd
000002e0: 510f 1a3d a02c 55be edfc 063e 74c0 d53d
000002f0: 357c 44be b481 a2bc 1fce 383e a7fe a2bc
00000300: 890a c2bd 3868 15be 770d 51be 5baf a4bd
00000310: 3cde a8be 5619 2c3d ea0d 063d 754e eabc
00000320: d667 6abe 645f 88be a598 58be 2200 4b3e
00000330: fc96 a9be f11c 633d 0ef2 b4be b5f6 1fbd
00000340: ddbd ecbd 1431 3bbd 4b31 44be 4009 31be
00000350: d0a7 f33d 6b50 c83d a990 36be 47e1 6dbe
00000360: d436 393e 4cb7 933c 11ba 61bd de98 103c
00000370: e647 513d 9c77 9bbe 1632 633d fbf1 03be
00000380: e973 6dbe 4c99 5dbe 6870 82be bd16 a43d
00000390: 1291 71bd 0fea 663e ca9a 0e3e 4ec9 4d3d
000003a0: 806f 68bd b2b8 3a3e cfd2 d0bd 5349 a5be
000003b0: dc2b 1dbc ad0e 45bd cd03 1fbe 70b2 1f3d
000003c0: 8a42 6bbe 5ea7 dd3d 8307 50be 9c61 843c
000003d0: 95f8 863e 38d8 973e e565 af3c d2cb b93d
000003e0: f43d b1bc 5020 abbe 68ac b0bc 5ba3 dabe
000003f0: a29c e6be c24b 163e 466f b8be f0b1 7abc

fc2.bias f4 [64]
-0.09740395 -0.025921313 0.09480054 -0.0022624228 0.12337916 -0.072090775 -0.0008726793 0.1033748
0.20511477 0.4638295 -0.046969905 0.09429828 0.104933515 -0.05380758 -0.04177442 -0.13895294
6.217195e-05 -0.12645036 -0.04610093 0.12974583 0.16905306 0.45250398 -0.13551496 -0.14940782
-0.054829158 -0.14111103 0.044110913 0.0028257966 -0.011110644 0.14265561 0.046234395 -0.21299614
-0.035179727 0.17646812 0.046496205 -0.09049394 -0.12868671 -0.09473257 0.10696838 -0.084986076
-0.10997867 0.48711503 0.3632698 -0.0329546 0.14794172 -0.009374381 0.013970687 -0.10235738
0.1553646 -0.049744107 -0.18346123 0.4312901 -0.06019517 -0.03831486 0.017981945 0.060064398
-0.17345181 -0.09336596 -0.0063953903 -0.03464334 -0.04797874 0.115215875 0.073212445 -0.14037208
00000000: b97b c7bd ef58 d4bc c926 c23d 2845 14bb
00000010: 37ae fc3d 54a4 93bd 84c4 64ba 2bb6 d33d
00000020: 9b09 523e 0f7b ed3e 8463 40bd 751f c13d
00000030: 62e7 d63d 5665 5cbd a71b 2bbd ae49 0ebe
00000040: 5062 8238 347c 01be 54d4 3cbd 17dc 043e
00000050: 3f1c 2d3e 9aae e73e 6fc4 0abe 5dfe 18be
00000060: 8a94 60bd 697f 10be a5ad 343d 0031 393b
00000070: 6b09 36bc 5014 123e 4760 3d3d a91b 5abe
00000080: 9e18 10bd 0fb4 343e ce72 3e3d e354 b9bd
00000090: 73c6 03be 2603 c2bd 3d12 db3d 2e0d aebd
000000a0: 7f3c e1bd 2467 f93e 80fe b93e 67fb 06bd
000000b0: 097e 173e 0197 19bc 4fe5 643c bfa0 d1bd
000000c0: e617 1f3e 7ac0 4bbd 43dd 3bbe 0ed2 dc3e
000000d0: 368f 76bd 0bf0 1cbd df4e 933c 1606 763d
000000e0: 5a9d 31be a736 bfbd 6c90 d1bb 2de6 0dbd
000000f0: 5b85 44bd 4df6 eb3d 68f0 953d b3bd 0fbe

fc3.weight f4 [4, 64]
-0.279495 0.11388793 0.09507953 -0.30151662 0.51713145 0.21905911 0.37624022 -0.16667666
0.32736754 0.17287412 -0.118550874 0.16159551 0.23135127 0.020415278 -0.032785628 -0.0870669
-0.15410161 -0.08136577 0.36045903 0.2817767 0.10270252 0.20712724 -0.12811704 0.021084893
-0.07744701 -0.14851217 -0.39642483 -0.04299256 0.21012148 0.08639432 -0.35708565 -0.09175682
0.12174489 0.12524273 0.1004373 -0.06356332 0.67872083 -0.19068396 0.08191666 0.046440214
-0.12306031 0.1884012 0.12888187 -0.07010279 0.12745218 -0.019456293 0.16367133 0.41459072
0.019440591 0.27106845 -0.2510598 0.16129188 0.30408442 0.16544408 0.11724626 0.10549673
-0.19358802 -0.080399625 -0.028785618 0.32598156 -0.28881788 0.34684053 0.1400789 -0.02881422
0.118840344 0.17846613 0.2188335 -0.3733534 0.35722265 0.19921818 0.4132388 0.023704393
0.15548214 0.15086207 0.012345791 0.17728773 0.22292334 0.3286004 0.3165626 -0.042818107
-0.24852301 -0.20808262 0.5751987 0.16095139 0.10281727 0.21965107 -0.3001498 0.07882723
0.017023098 -0.11594905 0.12296693 0.18451458 -0.4299144 0.11332749 -0.119758144 0.17739756
-0.13561419 0.0033167657 0.18750012 0.05722564 0.45408544 -0.063895024 0.23193061 0.18516847
0.006342037 0.17922512 0.16244797 0.4476924 0.08404742 -0.116512135 0.1245378 0.06427718
0.1080989 0.211054 -0.32837477 0.09596549 0.20165265 0.096128926 0.1485748 0.18334354
-0.35414785 -0.37232587 0.020933645 0.31005597 -0.15340361 0.23808387 -0.36829832 0.13084252
-0.0683452 0.38458893 0.12558123 0.145898 0.60109204 0.04650533 0.04220902 -0.023360344
0.18131085 0.14459579 -0.019761248 0.3479749 0.13250187 -0.19451293 -0.42720994 0.06651258
0.24112728 -0.2381852 -0.12267872 0.050401367 0.11623907 0.22509196 -0.15369803 0.39253652
0.27675003 -0.069434986 0.047726113 -0.4631202 0.0012642496 0.15960878 0.0010331116 -0.08610597
-0.58656836 0.05866044 0.35200363 0.47559848 0.54443204 -0.45774356 -0.0986789 0.19807653
0.14758715 0.1716008 0.20636554 0.23393686 -4.9247235e-05 0.011296012 0.2145875 -0.05895292
0.17784826 0.2140781 -0.16620187 0.24275413 0.22776766 0.2908806 0.11340794 0.2507474
-0.17792584 -0.23203743 0.3954034 0.2661998 -0.24601224 0.16177838 -0.48258412 -0.33404434
-0.40697774 0.33913258 0.31299132 0.04054744 0.055805087 0.206675 0.14213656 0.13775782
0.114949 0.19767924 0.16052534 0.11687948 0.3437036 0.37056538 0.18741743 -0.24979424
0.42144576 0.3221144 0.5859048 0.0738437 -0.0060164733 0.25206622 -0.31727943 0.16372354
0.118351184 -0.18599555 -0.0087104365 0.024364255 0.46814722 -0.04277163 -0.41799968 -0.08723132
0.06027846 0.11443144 0.009446811 -0.08303563 0.24077474 0.11429953 0.30467886 0.25710005
-0.61575025 0.20972754 0.20345956 0.0014362627 0.19750576 -0.26384076 0.12908214 0.2693129
0.23814555 0.24287954 -0.033020075 0.1456695 0.23396806 0.2958866 0.07843468 0.20488194
-0.27346027 0.08109979 -0.16141152 -0.13933086 -0.48939562 0.10413967 0.002528982 -0.11373306
00000000: f819 8fbe 133e e93d 0eb9 c23d 6360 9abe
00000010: ba62 043f 0851 603e 8fa2 c03e 49ad 2abe
00000020: b89c a73e ea05 313e cdca f2bd 4b79 253e
00000030: 59e7 6c3e f13d a73c 394a 06bd 2250 b2bd
00000040: d0cc 1dbe 19a3 a6bd 168e b83e 0945 903e
00000050: b355 d23d 2a19 543e 1d31 03be 3aba ac3c
00000060: 8a9c 9ebd 9313 18be 32f8 cabe f718 30bd
00000070: 162a 573e 81ef b03d eed3 b6be 00eb bbbd
00000080: 6355 f93d a13f 003e 12b2 cd3d 7c2d 82bd
00000090: a6c0 2d3f a842 43be ecc3 a73d 1838 3e3d
000000a0: 0b07 fcbd 3fec 403e 9cf9 033e 0d92 8fbd
000000b0: d382 023e ce62 9fbc 7599 273e 3c45 d43e
000000c0: e041 9f3c 7cc9 8a3e e98a 80be b329 253e
000000d0: f4b0 9b3e 2c6a 293e cf1e f03d ab0e d83d
000000e0: f03b 46be 8fa8 a4bd d1cf ebbc 0ee7 a63e
000000f0: f0df 93be 1595 b13e d870 0f3e cd0b ecbc
00000100: 9162 f33d d3bf 363e e415 603e 2d28 bfbe
00000110: e3e5 b63e daff 4b3e 0994 d33e b72f c23c
00000120: b636 1f3e 967b 1a3e 0046 4a3c ea8a 353e
00000130: 0446 643e 503e a83e 7e14 a23e 0a62 2fbd
00000140: d17c 7ebe 9c13 55be 3940 133f 71d0 243e
00000150: dc91 d23d 36ec 603e 3cad 99be 2c70 a13d
00000160: 0674 8b3c b276 edbd 16d6 fb3d 64f1 3c3e
00000170: be1d dcbe 3e18 e83d c243 f5bd b5a7 353e
00000180: 72de 0abe 185e 593b 0800 403e 6f65 6a3d
00000190: e37d e83e 65db 82bd 387f 6d3e ce9c 3d3e
000001a0: ddd0 cf3b ca86 373e c358 263e f037 e53e
000001b0: 0e21 ac3d ea9d eebd ad0d ff3d c1a3 833d
000001c0: f562 dd3d 8a1e 583e bd20 a8be 8e89 c43d
000001d0: 087e 4e3e 3edf c43d fe23 183e 69be 3b3e
000001e0: de52 b5be 7fa1 bebe 097d ab3c a8bf 9e3e
000001f0: d615 1dbe 42cc 733e 9991 bcbe 95fb 053e
00000200: 91f8 8bbd d7e8 c43e 5e98 003e 4966 153e
00000210: 2be1 193f 5f7c 3e3d 5ee3 2c3d 315e bfbc
00000220: 8da9 393e eb10 143e 57e2 a1bc c429 b23e
00000230: 92ae 073e 662e 47be 43bb dabe bf37 883d
00000240: 12ea 763e d2e6 73be fb3e fbbd aa71 4e3d
00000250: c00e ee3d 827e 663e 0463 1dbe 8cfa c83e
00000260: 2eb2 8d3e ee33 8ebd 757c 433d 171e edbe
00000270: 2db5 a53a 7c70 233e 7969 873a 5458 b0bd
00000280: 5829 16bf ee45 703d d239 b43e a581 f33e
00000290: e65f 0b3f 5d5d eabe 2a18 cabd 93d4 4a3e
000002a0: 1621 173e 1fb8 2f3e 7d51 533e 258d 6f3e
000002b0: d18e 4eb8 e912 393c d3bc 5b3e 9e78 71bd
000002c0: db1d 363e 4a37 5b3e d330 2abe 8a94 783e
000002d0: ed3b 693e 4dee 943e 6c42 e83d f761 803e
000002e0: 3132 36be 389b 6dbe 5072 ca3e 574b 883e
000002f0: a2ea 7bbe 3ba9 253e 4415 f7be dc07 abbe
00000300: 635f d0be c9a2 ad3e 6640 a03e 1315 263d
00000310: e093 643d 9ca2 533e 3f8c 113e 6310 0d3e
00000320: 626a eb3d 6d6c 4a3e c160 243e 825e ef3d
00000330: ebf9 af3e bfba bd3e 5bea 3f3e 10ca 7fbe
00000340: bdc7 d73e 2eec a43e dbfd 153f 5e3b 973d
00000350: d625 c5bb d30e 813e 7372 a2be 25a7 273e
00000360: 1b62 f23d 9e75 3ebe 38b6 0ebc 8c97 c73c
00000370: feb0 ef3e 4e31 2fbd 0e04 d6be 56a6 b2bd
00000380: 8ce6 763d 085b ea3d ccc6 1a3c 960e aabd
00000390: a78d 763e df15 ea3d defe 9b3e 9ea2 833e
000003a0: cfa1 1dbf d1c2 563e b457 503e fb40 bc3a
000003b0: f33e 4a3e 2316 87be 1c2e 043e 61e3 893e
000003c0: 6ddc 733e 6ab5 783e 0f40 07bd 632a 153e
000003d0: 5395 6f3e 737e 973e 5da2 a03d 92cc 513e
000003e0: fc02 8cbe a617 a63d 1049 25be c0ac 0ebe
000003f0: 1092 fabe 2e47 d53d 47bd 253b e1ec e8bd

fc3.bias f4 [4]
0.25846165 0.26610994 0.21691403 0.17045902
00000000: 1655 843e 903f 883e b61e 5e3e cf8c 2e3e
