Results/Models/dqn.pth (torch_old, 28391 bytes, 6 tensors)

fc1.weight f4 [64, 37]
00000000: 1574 333d 7622 febd 3d40 6abd afbd 8bbe
00000010: 6969 47be e59a 07be bacc 1dbd f6bc b23e
00000020: 8411 0cbf ccd0 4cbe a9ec 203e 3ba7 64be
00000030: d260 8abe 9741 0dbe 3d06 88be fada a23d
00000040: 3ed0 363d f86b e0bd 173f ecbd 0e31 403d
00000050: 4064 fe3d 8dca 1e3d 00cd 563e a7fa cdbe
00000060: 2c6b 243d b1e5 61bd 2d1e 133e 95f4 473c
00000070: 30c4 04bf 8395 923e 2a51 5cbd 193d 223e
00000080: 5414 02bd 6109 7abe 7b67 99be c527 253d
00000090: 237a a3bb f71f f33c fc90 243e 0f43 4d3d
000000a0: 33ae bb3d aedd 2fbe 1664 cb3d 0155 b13c
000000b0: 1689 95be 09cb 63be b537 94bf d18d 473d
000000c0: 2f3e b4bd 4412 883d 737e 553e 3e6b bc3e
000000d0: f388 dc3d ce69 6b3d 0018 f1bd 27b5 a83d
000000e0: 0fa7 4fbd 0813 93bc c267 6fbd 7f75 4dbe
000000f0: c14d 0bbd 96ab e5bd 0644 19be 4467 c53d
00000100: 25f5 073e d64f 6b3e c018 1e3e 6118 733d
00000110: 3ddb cf3d 1d90 c03d 381a 9d3d d56d 6e3e
00000120: d888 5e3c 71be e53c c91d 073e 88fd 123e
00000130: 8b7f 393e db4a 833d 0bd5 fcbd 8f18 98be
00000140: 0745 3d3e cdeb 2e3e a9a5 683e 1db0 8eba
00000150: 96cf 0cbd 7d77 ed3c 3940 363d 5225 2a3e
00000160: 7465 833d fbe9 91bd 4052 d43d 8d82 0d3d
00000170: c724 533e 1ef7 023f a6b8 9abd 2502 b7bc
00000180: a3f3 8c3d d7f0 983d d799 243c dfa3 043d
00000190: 47fa 3c3c 03ce 303e befa 8d3d 805e d9be
000001a0: 88f3 68be ab20 b93b c59c 8f3d fb54 4fbc
000001b0: 8da7 423d 101c a53d 44d3 7fbc c6cf 173e
000001c0: 6f91 eabe 2fd4 713e 9221 e3bd cd1e 1abf
000001d0: 6ad2 e6bd 4046 d23d 872b 073e 4377 a0bd
000001e0: 99ca fcbe df28 f33c 2ab1 66be 0215 d93d
000001f0: a86d 2a3e 0572 4bbe bf8d 843c 7adf a8bc
00000200: 8196 10be d64e ecbd 7831 0cbe 3b62 203e
00000210: fb33 143e 18c3 f3bc 874b a1be c523 16be
00000220: c5d9 a03d 6fe4 6cbd e641 bf3d 7b6f d43c
00000230: 5386 c6be 9aab cc3d d6b1 c73e 941d 2fbd
00000240: f2cb a7be b889 38bf b361 383d 2732 383b
00000250: e326 a1bd b8eb 69be cab0 02be 4afb dabe
00000260: 8eca 0a3e becd 2f3c 7928 b43d 2a4b f7bc
00000270: 9db8 c7be 01df 32be 0b93 a63d 5f09 b5be
00000280: 6014 14bd 779c dbbe c367 04bf 2810 e43a
00000290: 3653 0ebf 7bad d7bd 9a5f 10be d8af 91bd
000002a0: 4478 d9bd 4f55 6fbc 3b10 0dbe bc90 51bc
000002b0: b542 e6bd f79c adbd 6471 1cbe 9f88 913e
000002c0: 5c2d 2ebe d2ba 43be e71f d13d 3e1b 02bd
000002d0: 3b2f e23d 2a29 57be 33ba 92bd 62e0 063e
000002e0: d3f9 5c3d 806b d43c cc67 15be 0f0f 133d
000002f0: bd51 efbd 73f2 fb3d 0fd6 793e 40b5 bd3d
00000300: 4c53 91bd 7789 8bbe cbe3 2cbf b373 2dbd
00000310: 729a 1a3e 0b3f 82be 01f1 24be 59e0 85be
00000320: 76ae bebd c42e 023e e1ae b1bd 7b47 00be
00000330: 5c1b a73b cf36 2e3d 5bc1 1f3e 2d02 1cbc
00000340: afff e73d 067b 20be 4898 8dbe 891a e1bd
00000350: ab46 853e 9e50 3f3e 19af 1f3d d586 d3be
00000360: 27af 7e3e eb9d e63c 10d7 66bc e4aa ddbe
00000370: a3c4 18be b2cd a4bc c83c e1bd 0af0 3dbe
00000380: 3433 c63d 4f40 35bc 05e5 99bd 3adc 22be
00000390: 8b12 743a d633 e83d 6ac1 17bf 8b94 0d3f
000003a0: c0ef 493d 97fe 27be 184e da3d 2deb 3b3e
000003b0: f12f 7ebc df41 173d 0d5f 5ebe f205 ccbd
000003c0: a128 203b 8e72 5d3e 263c 86bd acc1 46be
000003d0: 4ede e03d c5d5 6fbe f2de 9439 0bcb c1be
000003e0: bd26 55bd c7df 603d aa22 e839 ea23 433e
000003f0: 03dc a8bd cfad a1bc 27e2 4ebe 98ed 473e
0.043811876 -0.12408917 -0.05719017 -0.27293155 -0.19473805 -0.13242681 -0.03852532 0.3490979
-0.54714227 -0.20001525 0.15715279 -0.22329418 -0.27026993 -0.13794552 -0.2656726 0.07951923
0.04463219 -0.109580934 -0.11535471 0.046921782 0.12421465 0.038767386 0.20976639 -0.40230295
0.04014127 -0.05515069 0.1436698 0.012204309 -0.5186186 0.28629693 -0.05378834 0.1584362
-0.031757668 -0.2441764 -0.29961762 0.04032113 -0.004988925 0.029678328 0.16070932 0.05011278
0.09164085 -0.17174408 0.09931199 0.021646978 -0.2920615 -0.2224542 -1.15795 0.04871923
-0.08800923 0.06644109 0.20849018 0.3680057 0.107683085 0.05747395 -0.11772156 0.08237677
-0.05069643 -0.01795341 -0.05844856 -0.20064352 -0.0340097 -0.11214368 -0.14967355 0.09638837
0.13277109 0.22979674 0.15439129 0.05934942 0.10149238 0.094024874 0.076710165 0.23284085
0.013582431 0.028044911 0.13194956 0.14354527 0.1811506 0.06410762 -0.12345322 -0.29706237
0.18483363 0.17082138 0.22719444 -0.0010886226 -0.034377657 0.02898764 0.04449484 0.16615799
0.06415835 -0.07124706 0.103672504 0.03454833 0.20619498 0.5115832 -0.0755475 -0.02233989
0.068824075 0.074678116 0.010046444 0.032382842 0.01153428 0.17266087 0.06932591 -0.4245491
-0.2274915 0.0056496463 0.07012323 -0.012654538 0.04752307 0.08061993 -0.0156143345 0.14825353
-0.45814082 0.23616098 -0.110903874 -0.6020325 -0.11270602 0.102673054 0.13200198 -0.07835247
-0.4937332 0.029682575 -0.2252852 0.1059971 0.16643393 -0.19867714 0.016180871 -0.020614374
-0.14119913 -0.11538474 -0.13690746 0.15662472 0.14472954 -0.029756114 -0.31502935 -0.14662082
0.07854036 -0.05783504 0.09338741 0.025932064 -0.38774356 0.09993668 0.39002866 -0.042752817
-0.32772785 -0.7208514 0.04501505 0.0028106065 -0.07868745 -0.22843826 -0.12762752 -0.42769843
0.13553831 0.010730205 0.08796782 -0.030187208 -0.39008036 -0.17467882 0.08133515 -0.35358712
-0.036152244 -0.4289281 -0.5172083 0.0017399834 -0.5559572 -0.10531136 -0.14098969 -0.07113618
-0.10618642 -0.0146077415 -0.13775723 -0.012790855 -0.11243192 -0.08477204 -0.1527763 0.28424546
-0.1700949 -0.19114235 0.10211163 -0.03176426 0.11044165 -0.21011797 -0.07164421 0.13171533
0.05394919 0.025930166 -0.14590377 0.035903033 -0.11685512 0.12302103 0.24398063 0.09263086
-0.07095966 -0.27253315 -0.67535084 -0.042346667 0.15097979 -0.25438723 -0.1610756 -0.26147726
-0.093106195 0.12713152 -0.08675934 -0.12527268 0.005099697 0.04253274 0.15601103 -0.009522003
0.11328065 -0.1567193 -0.27655244 -0.10991389 0.26030478 0.18683097 0.038985346 -0.41313806
0.24871503 0.028151473 -0.014089361 -0.43294442 -0.14918761 -0.020117614 -0.10997921 -0.18548599
0.09677735 -0.011062696 -0.07514385 -0.15904322 0.00093106244 0.11338012 -0.592795 0.55304784
0.04930091 -0.16405712 0.106594265 0.18351431 -0.01551436 0.036928054 -0.21715946 -0.099620715
0.002443828 0.2162573 -0.06554441 -0.19409817 0.10979901 -0.2342139 0.00028394867 -0.37850222
-0.052038897 0.05490091 0.00044276315 0.19056669 -0.08245089 -0.019736199 -0.20203458 0.19524229

fc1.bias f4 [64]
00000000: 0d22 a23d 7dfb 02bd 7d25 bfbd 3e9a 95bd
00000010: 4af1 b23d 6362 0abd 7be8 f5bd 7d65 913d
00000020: 2b55 3dbc 3221 68be 98e9 4b3e 4e02 4b3e
00000030: 3239 ed3d 968b 9b3e 13aa d43d 7d25 2ebd
00000040: 698c 6cbd 6757 b23c 9afc 1ab9 4ccc 53be
00000050: a22c c1bd 2443 7e3d fe37 24bc 41a7 6dbd
00000060: 74f6 2dbe a123 263d 1adc 0ebe 1d5a 70be
00000070: 3f86 283e b670 113e c59e 0ebe 4708 febd
00000080: cb1d d73d d31a 693d 48e9 f8bd bb5d 853c
00000090: 582b c8bd 4fd2 553d 39ca 353b 660a 3abe
000000a0: d0f1 7abd 12af 9bbd e7b6 bebd f256 743d
000000b0: abe1 1c3c 9b2f 86bd 83c1 ca3d 009d 19be
000000c0: bf53 4fbe 98d7 fc3a 193e 39be 0322 b33d
000000d0: 88bc 1bbd 9c58 c5bc ffb4 85be b9f3 a03c
000000e0: d004 f13d 4a43 fcbd b519 42be c16b 44bd
000000f0: ceb0 94bb 4a7e 3b3d 9695 3f3e f35e 0a3e
0.07916651 -0.03197812 -0.09333322 -0.0730481 0.087374285 -0.033785235 -0.12007233 0.070994355
-0.01155595 -0.22668913 0.19913328 0.19825098 0.11583175 0.30379933 0.103840016 -0.04251622
-0.057751093 0.021770192 -0.00014780686 -0.20683402 -0.09432341 0.06207575 -0.010023115 -0.058020834
-0.16988546 0.040561322 -0.1395115 -0.23471875 0.16457461 0.14203152 -0.13927753 -0.124039225
0.105037294 0.056910347 -0.1215387 0.016280046 -0.09773892 0.05220252 0.0027738942 -0.18168029
-0.061265767 -0.076017514 -0.093122296 0.05965323 0.009575288 -0.06552049 0.09900191 -0.15001297
-0.2024679 0.0019290326 -0.18090095 0.087467216 -0.038021594 -0.024090104 -0.26114652 0.019647466
0.11768496 -0.12317522 -0.18955119 -0.047954325 -0.0045376783 0.045774736 0.18709406 0.13512783

fc2.weight f4 [64, 64]
00000000: 4277 cebd 33bb f03d f390 64be 554e 8d3e
00000010: 459a 223e 4c4e c23c 7397 97bd 5afe 76be
00000020: 8c45 ccbd 49b6 963d cba0 e2bc 4196 913e
00000030: 309f 62be 76d7 e43d 5fb4 1fbe 1a33 1dbe
00000040: 5f28 95bd 577a e5bd fcd5 0bbe ac44 cc3d
00000050: 930b 473e f43a 52be d281 32be 2574 90be
00000060: c6b9 bcbd 927d 0dbe ad53 603e 7c35 b43c
00000070: 57a4 80bc 340a 013e a81f cfbd f369 82bc
00000080: ea33 1c3e 168f ba3e fc9a 31be d69d cfbd
00000090: 3f20 8cbb ad42 c23e 9227 84be a266 9abc
000000a0: 078b e4be e5c6 b53d 51d8 893e 1982 a7bd
000000b0: 87ff 46bd f9bc 3cbe 4107 b8bd 5205 2e3e
000000c0: 78cc af3d 13f1 04be bac4 05be a265 533e
000000d0: 69dd 7e3c d5b8 0bbf 48aa 913d 2114 a0bd
000000e0: 7e16 84be c9f5 b73d 70a4 bb3a a9e1 46bc
000000f0: 9645 43be a5e0 1c3e b354 ccbd b4c4 0abe
00000100: 7b45 81bd d191 943e cf38 f0bd 3ef6 473e
00000110: 7d40 c83c e6bf 673e 0daf dabe d057 2fbe
00000120: 668a 60be a625 bfbd 1bda 65bc c328 bf3e
00000130: f893 4fbe 7588 a7bc 5faf 4fbe 5fc1 16bd
00000140: 18b4 703e a674 78be f680 c93c 9fed b0bc
00000150: 35f0 5f3e 8702 0dbe 5d33 44be e8ce 04be
00000160: 77fb 063d f39f 693d bbde d93c cbc2 e63c
00000170: b0e9 5f3e 0e04 33be bd34 52be 97cb a73d
00000180: 054b a6bb 7c31 25bd 9903 4dbe 8086 fb3d
00000190: 2326 e4bc aa7b be3e e1b3 af3d d576 873d
000001a0: 8f1c 65be 9675 973d 1f69 093e 1067 e7bd
000001b0: 6ce0 ce3b f1b8 7d3d da46 63be c078 fa3d
000001c0: 0dd2 6dbd 97b0 df3d 1f2f 0fbe 09db c43d
000001d0: b088 dabd 15d6 c9be ddf0 14bd 16b0 2ebe
000001e0: 77aa 2ebd 627d 9dbd 1320 353e 69cf d1bd
000001f0: 645e b3be 38cc 45bb 2599 b73e 2054 e7bd
00000200: 6c0a 553d 6613 8e3d 5b17 243c 72e4 3abe
00000210: a2bf 09be a94c 043e 6519 5b3b a69f 8f3e
00000220: cb72 eabd aae5 a2bd f16b ab3d 2dfb dcbe
00000230: a8cc cfbd 2a6c b13c 7517 bebd 9b45 aabe
00000240: f9cb 8dbd 3c83 61be a822 4abd 3410 8cbe
00000250: 1f5f 953d 811e 38be 9b93 08bf a06c 86be
00000260: fb3b a7be 826e 1b3e ef68 5bbd 95ce 79bd
00000270: 6c89 c1be 3efa f8be 1392 9ebd 25f6 b23d
00000280: 96de 29be ebc2 f33d 92e6 523c 39e4 463c
00000290: e83e 163e b640 c3be c3fb 463e ffaf 97bd
000002a0: ae51 aa3e b73d f43d b96d 5abe 67c0 873d
000002b0: 3d27 c43d 3159 a73d ab75 ba3d 3bba 2c3c
000002c0: e86d 5fbd 87f7 a4bd b79b cbbd 1906 113b
000002d0: 2294 ffbe a11c 42bf 2b15 fe3c 5844 19be
000002e0: 8069 4dbe d215 383b 7d5e 323d e496 bc3c
000002f0: ef9f 0b3f 2858 f2bd cd7a bf3d 0bf5 21be
00000300: 3be4 0bbc 07f2 c8bd 18ea 993d f011 95be
00000310: 9e30 333d 3652 91be 3341 28be f2e1 cebd
00000320: 9d26 993d a54b 85be 9c62 a8bd f74d 843d
00000330: 3627 1e3e c8ae a3bc 3b04 00be a78c ccbd
00000340: 5962 f93d cfea 073e dc3e 353e 01a2 863c
00000350: 60c4 b23c 60f7 babd 79cc cdbd cc68 09bc
00000360: 693a 4a3e adb2 543e c2f0 0bbd 723e 34be
00000370: 99e6 053f 8492 8d3e ffe6 213e 55d5 22be
00000380: d7b0 1d3e a920 ba3d 4ead 843e 81c7 753e
00000390: 89f3 babd 9c01 63bd e1a9 f13e 2708 cb3d
000003a0: 901b 0ebe ecd5 0ebe c119 4bbe ed1e 35be
000003b0: 78fd b53c de46 953c 172c dc3c 57ba 6abe
000003c0: 207d 33be 35cc 233e d800 22bd 4671 aabe
000003d0: 3375 423e 206c 95bd ee3d 323d c39f 263e
000003e0: 59ac 0bbe 2f07 18be 0b5d 0dbe aa80 91bd
000003f0: d29b c1be ac9a 333e 7c44 79be e464 543d
-0.100813404 0.117544554 -0.22320919 0.27598825 0.15879162 0.023718975 -0.074019335 -0.24120465
-0.099742025 0.07358987 -0.027664563 0.28434947 -0.22131038 0.111739084 -0.1559615 -0.15351525
-0.07283091 -0.11204975 -0.13655847 0.099740356 0.19438009 -0.20530301 -0.17432335 -0.2821361
-0.09215121 -0.13817433 0.2190692 0.02199816 -0.015703363 0.12601548 -0.1011346 -0.015919661
0.15254179 0.3643729 -0.17344278 -0.10137527 -0.004276305 0.37941495 -0.2581144 -0.018847767
-0.4463732 0.08875827 0.2692285 -0.08179111 -0.048583534 -0.18431462 -0.089857586 0.16994217
0.08583921 -0.12982588 -0.13063326 0.20644239 0.015555718 -0.54578906 0.07112557 -0.07816339
-0.2579841 0.08982427 0.0014315974 -0.0121387625 -0.19069514 0.1532007 -0.099770926 -0.13551599
-0.063120805 0.290175 -0.117295854 0.19527528 0.024444813 0.22631797 -0.42711678 -0.17123342
-0.21927795 -0.09333353 -0.014029051 0.37335786 -0.2027129 -0.02045081 -0.20281743 -0.036805507
0.235062 -0.24263248 0.024597626 -0.021597682 0.21868975 -0.13770495 -0.19160219 -0.12969553
0.03295466 0.057037305 0.026595464 0.028169056 0.21866488 -0.17482015 -0.2052793 0.081931286
-0.005074861 -0.040330395 -0.20020904 0.12281513 -0.027850216 0.37203723 0.08579231 0.06614462
-0.22374175 0.073954746 0.13419007 -0.112989545 0.0063133743 0.061943952 -0.22194996 0.122300625
-0.05806165 0.10922354 -0.13982819 0.0961209 -0.10670602 -0.39421144 -0.036362518 -0.17059359
-0.042643037 -0.076899305 0.17688017 -0.102446385 -0.35032952 -0.0030181538 0.35859028 -0.112953424
0.052011892 0.06937294 0.010015334 -0.18251207 -0.13452008 0.12919869 0.0033431884 0.2805149
-0.11447676 -0.07953961 0.083701976 -0.43160382 -0.10146457 0.021658022 -0.09281818 -0.3325623
-0.0692367 -0.22022718 -0.049349457 -0.27356112 0.072935335 -0.17980386 -0.5335023 -0.2625475
-0.3266295 0.15178874 -0.05356687 -0.060988028 -0.37800157 -0.4862842 -0.07742705 0.087383546
-0.16588816 0.11902412 0.012872355 0.012139373 0.14672434 -0.38135308 0.19431977 -0.074066155
0.33265442 0.11925834 -0.21330918 0.06628495 0.095777966 0.08171309 0.09104475 0.010542448
-0.054548174 -0.080550246 -0.099418096 0.0022128879 -0.49917704 -0.75824934 0.031015953 -0.14967477
-0.20059776 0.0028089178 0.043547142 0.023021169 0.54540914 -0.11833221 0.09349594 -0.15816133
-0.008538301 -0.09811788 0.07515353 -0.29115248 0.043747537 -0.28383034 -0.16431122 -0.101016894
0.07478068 -0.26034275 -0.08221933 0.06460183 0.15444645 -0.019980803 -0.12501614 -0.09987765
0.121769615 0.13273166 0.1769976 0.016434671 0.021822155 -0.09129214 -0.10048766 -0.008386802
0.19748844 0.20771284 -0.03416515 -0.17601946 0.5230499 0.27650845 0.15810774 -0.15901692
0.1539949 0.09088261 0.2591347 0.24001886 -0.09128482 -0.055421457 0.4719992 0.09913664
-0.13877702 -0.13948792 -0.19834043 -0.17687578 0.02221559 0.018222269 0.026876492 -0.22922646
-0.175282 0.15995868 -0.039551586 -0.33289546 0.1899002 -0.07296014 0.043516092 0.16271882
-0.13639964 -0.1484649 -0.13805024 -0.07104619 -0.37814194 0.17539471 -0.24342531 0.05185403

fc2.bias f4 [64]
00000000: f1a1 093d 279d aabd c7c4 8c3d f6b6 c63d
00000010: fefd 023f eb50 74be af2c af3d 9fe5 b73a
00000020: 745b c53e e623 133f 9598 1cbe 355b 653e
00000030: 211d cf3d da4c 15be a053 ad3d c5e0 ff3d
00000040: 1b28 223e b567 80bd 871e 4abe 2b1d 643e
00000050: 2a45 db3e 1099 293f 910e 61be f999 1dbe
00000060: 997b 1abd e7ec 5abe 238f 34bd a059 05bd
00000070: b40b 89bd 2b9b 663d f8e0 e63c 0649 8e3d
00000080: d47e b2bd 4494 423d 2c8b 5a3d 913f c6bd
00000090: 1902 4ebd 71b3 58be 311e 813d 08ad 7ebc
000000a0: f850 0cbd 0cd4 1d3f a25e 053f 8c46 95bb
000000b0: bb14 153e 35e5 f7bd 4ef5 e73e 11b6 09be
000000c0: dc4f 543c c7f9 c6bc 3db4 80bd 1897 0d3f
000000d0: 6322 f53d 06f2 37be 970b bc3e 2fe7 6ebd
000000e0: 1366 7fbe c821 22be 48ce 903c 1807 d13d
000000f0: 5ba8 ab3d e572 e73e ed4a 96bc cf13 a23d
0.033601705 -0.08330756 0.0687347 0.09702866 0.5116881 -0.23858993 0.085534446 0.0014030224
0.38546336 0.5747665 -0.1529258 0.22398074 0.10112978 -0.14580098 0.08463216 0.12494043
0.15835612 -0.062697805 -0.19738208 0.22276752 0.42826205 0.6624918 -0.21978213 -0.15390767
-0.03771553 -0.21379434 -0.04408182 -0.032556176 -0.06691685 0.056300323 0.028183445 0.06947522
-0.08715597 0.04750468 0.05335538 -0.09680093 -0.05029497 -0.21162201 0.06304587 -0.015544184
-0.034256905 0.6165168 0.52097523 -0.004555529 0.1455869 -0.12104265 0.4530434 -0.13448359
0.012958493 -0.024289025 -0.06284378 0.55308676 0.11969449 -0.17963418 0.36727592 -0.058325943
-0.24941282 -0.15833199 0.017676488 0.10206431 0.08381721 0.45204845 -0.018346274 0.079139344

fc3.weight f4 [4, 64]
00000000: b4a0 a73e 81c2 183e 2f66 df3e c75b 893c
00000010: 1eb3 6b3e 3264 8bbd be9a aa3e aefa d6be
00000020: 399f 503e 0fb1 343e cbd9 7cbd 6138 5c3e
00000030: e7cd c43e d0dc 763d 46a9 f13d 088b 1b3d
00000040: 421a 503e 6651 d2be 6ea8 84be 7515 0a3e
00000050: 6275 c33d af9f 473e 87a2 8ebe 2889 06be
00000060: 6276 303e 3b03 82be b419 87be 70d9 a83e
00000070: f7ed e23e 27bd 213c cbf2 19bf 1974 e43b
00000080: 904b 203e e36e 0f3e 5865 353d ad88 2fb9
00000090: 215e 123e bc4e 06be fc89 c53d f08a cc3e
000000a0: aff9 873e 84b9 523e 33c4 2b3e 5cf9 df3c
000000b0: bfae 7c3e 4920 a43e fd1f 6c3e 1db7 c43e
000000c0: a488 cfbd a70b ea3d f1c6 fd3d f614 293e
000000d0: 89af 773e dea7 4dbe a0cc 0c3e 9bb0 bfbc
000000e0: e7b5 b6bd bc3d 29bf 4bb0 80be f16d 213e
000000f0: 6df6 57be 6c81 4a3e 5b85 a93b 8052 b33e
00000100: f887 a63e a874 78bd 64d2 b73e 29f7 023e
00000110: 9400 553e 7442 87bd 67aa b83e 7a75 ecbd
00000120: 67fa 073e 144f 393e 9283 963d 4de1 ae3e
00000130: bef5 8e3e 974f c43d 5c46 d53d 6d0e 9c3d
00000140: 91d7 8d3e 1469 393d 6b11 2ebe 76f4 153e
00000150: 7703 313e c23d 8b3e dccb 8dbe bd08 b1bd
00000160: bee7 923e e747 99be 6535 08be d50f d73e
00000170: a1c4 943e 1fb1 863c 41b1 26be 5f15 133e
00000180: 99a0 2c3e 3748 833e 6634 eb3d 2499 73bd
00000190: b099 3d3e 93d0 0dbe 69ec 44bd f3b4 ab3e
000001a0: e3f2 d63e 993c 443e a875 033e 57d6 073e
000001b0: 3f3c c53e dcb9 3cbd a9db 4c3e 2a2f 383f
000001c0: 33b1 a3bc 5ddb 1c3e 0c6c 1f3e 46dc 8e3d
000001d0: f8a8 573e d040 15bd 2c48 483e 8ee8 9abd
000001e0: cc34 55be 9935 45be 15eb 0bbe 1d8f 673e
000001f0: 2fbb 3ebd cce0 aa3d 3c65 0cbe 1138 b13e
00000200: 53c7 07bd b5ed f83e 11ad a03e 6426 ae3d
00000210: be41 633e a861 1f3e ae05 223e 3f7d a8bb
00000220: 9170 2e3e 7283 1c3e f426 b7bd e188 073f
00000230: b4bb b73e 3b67 c3be 6963 dc3d 6e49 503e
00000240: 1e47 a93e 22f2 1dbe 5a51 48be 9024 6d3d
00000250: 40aa f43d 03c1 893e bbda 64be ffee 2e3e
00000260: 7e6c cd3e 5824 8fbe a028 cebd 1c6c d5be
00000270: 2977 f13d 0352 e23d 3e3d 74be 5ec7 1f3c
00000280: db8f db3c 64f7 723e 42cd ad3e 2c6e ae3d
00000290: 2c45 d43e b7a5 6abe f759 183c bb76 803e
000002a0: cf18 3bbd bec6 4c3e 9a75 483e 5b0e 0cbf
000002b0: ae38 6a3e 2cab bb3d 9563 433e f66c fa3e
000002c0: 0e78 373e a4ed 603e 22e0 2d3e e2c0 7c3e
000002d0: 7b2a 8a3d d1c5 a13e 0409 0f3e c3c5 3f3d
000002e0: c001 79be db7b f3be bb20 24bd 0096 a93d
000002f0: 2478 e8be fdfd 3a3e 16b1 96be a140 933e
00000300: 3565 643d 3325 2a3f 03c2 103e 37dc 33be
00000310: 183b b43d e9bf 39bd 7501 6f3e 3718 a63d
00000320: 0a7d 493e 599b 6a3e 7a16 703d 28ce 5c3e
00000330: ba45 8b3e a216 9f3d 8466 583e c0cb 8f3d
00000340: 7b3f 9f3e dc2f 44bd 69ef a63d 05b3 2d3e
00000350: 74a6 da3d 551d 923e 2fac 73be a85d 273e
00000360: dfc2 9b3e 5088 9cbe 1b6b c1bd 5f6a 1a3f
00000370: dab5 7c3e de0e 47be 9b30 72be 38b3 0a3e
00000380: 187a b0bd e4a3 c63e aab4 443d 0380 7e3c
00000390: 1141 a33d 0442 24be 5f6a 853e dd87 6d3e
000003a0: ee0f 2dbe 48c6 403e e7ff 383e 6f21 f9be
000003b0: 9d04 dc3e e905 02be f453 2a3e 0044 efbe
000003c0: a71c 643d 58c6 dc3d d26f 923e f2dd 3e3e
000003d0: 7b84 d43d c08f c7bd a0be 5b3e 7314 223e
000003e0: 5985 a2be 2780 dcbd 0cf4 94be 0006 053e
000003f0: 130e 08bd 4f54 423e f131 ddbd 3af9 a53e
0.32739794 0.14917947 0.43632647 0.016767396 0.23017547 -0.0680622 0.33321184 -0.41988128
0.20373239 0.17645667 -0.06173114 0.21505882 0.3843834 0.060269177 0.117998645 0.037974387
0.20322517 -0.41077727 -0.25909752 0.13484748 0.09543873 0.19494508 -0.27858374 -0.13138258
0.1723266 -0.2539309 -0.26386797 0.32978392 0.44322178 0.009871758 -0.601361 0.0069718477
0.15653825 0.14007144 0.044286102 -0.00016740216 0.1429372 -0.13115972 0.09645459 0.3994975
0.2655768 0.20578581 0.16774063 0.027340584 0.24676035 0.32055882 0.23059078 0.38420954
-0.10133484 0.11428004 0.12391461 0.16511902 0.24188055 -0.20083568 0.13749933 -0.023399642
-0.08921414 -0.66109824 -0.251345 0.15764596 -0.21090098 0.19775933 0.005173368 0.3502388
0.3252561 -0.060658127 0.35902703 0.12789597 0.20801002 -0.06604472 0.36067507 -0.115458444
0.13279115 0.18096572 0.07349314 0.34156266 0.2792186 0.09585493 0.104138106 0.07619939
0.27703527 0.045266226 -0.16998832 0.14644036 0.17286478 0.27195555 -0.27694595 -0.08644245
0.2869243 -0.2993767 -0.13301618 0.42004266 0.29056266 0.01644188 -0.16278554 0.14363621
0.16858138 0.25641033 0.114846036 -0.05947222 0.18515658 -0.13849096 -0.04807702 0.3353649
0.41982183 0.19163741 0.12837851 0.13265358 0.38522527 -0.046075687 0.20005669 0.71946967
-0.019981956 0.15318055 0.1556856 0.069756076 0.2106055 -0.036438763 0.19558781 -0.075638875
-0.20820922 -0.19258727 -0.13663895 0.22613187 -0.04656523 0.08343658 -0.13710493 0.34613088
-0.033149075 0.48618856 0.3138204 0.08503416 0.22193047 0.15564597 0.15822479 -0.0051418836
0.17035128 0.15284517 -0.089429766 0.52943236 0.35885394 -0.38164696 0.107611485 0.20340511
0.3306207 -0.15424398 -0.19562283 0.057896197 0.11946535 0.2690507 -0.22349064 0.17083357
0.40121835 -0.27957416 -0.10066342 -0.41684043 0.11790306 0.11050799 -0.23851487 0.009752123
0.026801994 0.23727185 0.33945662 0.08517107 0.41459024 -0.22914778 0.009298793 0.25090584
-0.045677956 0.19997689 0.19576111 -0.54709405 0.22873184 0.09163508 0.19080956 0.48911256
0.17916891 0.21965653 0.16980031 0.24682954 0.06746384 0.31596234 0.13968283 0.04681946
-0.24317074 -0.47555432 -0.040070277 0.08280563 -0.4540416 0.18260951 -0.2943198 0.28760245
0.05576058 0.6646301 0.1413651 -0.17564474 0.08800334 -0.045349035 0.233404 0.08110087
0.19676605 0.22910823 0.058615185 0.21563017 0.27201635 0.07767989 0.21132857 0.07021284
0.3110312 -0.047897205 0.081511326 0.16962822 0.1067628 0.28538004 -0.23796152 0.16344321
0.30422112 -0.30572748 -0.09444257 0.6031856 0.24678746 -0.19439265 -0.23651354 0.13544929
-0.086170375 0.38796914 0.048023857 0.01553345 0.07971395 -0.16040808 0.26057717 0.23196359
-0.16900608 0.18825638 0.18066369 -0.4865832 0.4297227 -0.12697567 0.16633588 -0.46731567
0.055691388 0.107800186 0.28600937 0.18639353 0.10376831 -0.09744215 0.21459436 0.15828113
-0.3174236 -0.107666306 -0.29092443 0.1299057 -0.033216547 0.18977474 -0.10800541 0.32416707

fc3.bias f4 [4]
00000000: a909 ec3e 8a85 b83e c0d4 753e 105b 9b3e
0.4610112 0.36039382 0.24006939 0.30342913
