Results/Models/dueling_ddqn.pth (torch_old, 30249 bytes, 9 tensors)

fc1.weight f4 [64, 37]
0	0xbdbb3704	-0.09141353
1	0x3d84cc79	0.064843126
2	0xbe23be57	-0.15990578
3	0xbe917c83	-0.28415307
4	0x3cae9040	0.021309018
5	0x3dfd7c08	0.12377173
6	0xbe0bc6d3	-0.13650064
7	0xb9b840bc	-0.00035143446
8	0xbd08f695	-0.033438284
9	0xbda2b56b	-0.07944759
10	0xbd109cd6	-0.03530582
11	0xbd63a6a8	-0.055578858
12	0xbe9200c1	-0.285162
13	0xbec4b8b1	-0.38422158
14	0xbebc960b	-0.36833224
15	0xbeacecc0	-0.33774376
16	0x3db7607e	0.08953951
17	0x3dcd5ce8	0.10027486
18	0xbc22728c	-0.009915005
19	0xbcdc1c49	-0.026868956
20	0xbe0c2f24	-0.13689858
21	0x3def2c7a	0.11678405
22	0x3e7648f3	0.24051265
23	0xbe0f3304	-0.13984305
24	0xbe462bfe	-0.19352719
25	0xbc6a8723	-0.014314446
26	0x3d68b77c	0.05681561
27	0xbdbdcc23	-0.092674516
28	0xbe054837	-0.13015829
29	0xbda19327	-0.07889395
30	0xbe6a066e	-0.22854015
31	0x3e12f081	0.14349557
32	0xbe831441	-0.2560139
33	0x3dd9646c	0.10614857
34	0xbe967ba3	-0.29391202
35	0xbe648712	-0.2231715
36	0xbd86800f	-0.06567394
37	0x3e2b5c41	0.16734411
38	0x3e05f680	0.13082314
39	0x3c65c0c1	0.014023007
40	0xbc93b80b	-0.018032094
41	0xbf22c55d	-0.635824
42	0xbd1373e2	-0.035999186
43	0xbe21a6e5	-0.15786321
44	0xbe20bb72	-0.15696505
45	0xbd96d428	-0.07364684
46	0xbdb6345b	-0.08896705
47	0x3dad0de2	0.084499136
48	0xbe48eb7e	-0.19621083
49	0x3d030474	0.03198667
50	0x3e64f884	0.22360426
51	0x3e818c90	0.25302553
52	0x3da3467f	0.079724304
53	0x3d8ec1a1	0.069705255
54	0x3dc6ae4d	0.09701214
55	0xbe5b1ebc	-0.21398443
56	0x3d829020	0.06375146
57	0xbde66018	-0.11248797
58	0xbc775153	-0.015095073
59	0x3c65934b	0.014012168
60	0xbe2ef3e9	-0.17085232
61	0x3e4691a2	0.19391492
62	0xbd9a8d09	-0.075464316
63	0x3d1c54e0	0.03816688
64	0x3d508e54	0.050916985
65	0xbe2fd848	-0.17172348
66	0x3e12776a	0.14303365
67	0x3bff42a4	0.0077899266
68	0x3d6c9fc6	0.05776956
69	0x3dc24083	0.09484961
70	0x3e053766	0.13009414
71	0x3ce5647f	0.028002022
72	0x3d412b64	0.04716052
73	0xbbcef6c3	-0.0063160374
74	0xbca168ab	-0.01970323
75	0x3e43b7f7	0.19113146
76	0x3de3719e	0.11105655
77	0x3dbc4fac	0.09194884
78	0x3e233778	0.15939128
79	0xbdb19385	-0.08670715
80	0x3d0daf5c	0.034591064
81	0xbca4ddec	-0.020125352
82	0xbcb0e214	-0.021592177
83	0xbec5e669	-0.38652351
84	0x3dfd2c81	0.12362004
85	0xbe827b92	-0.25484902
86	0xbc90eb91	-0.017690452
87	0xbd933f0a	-0.07189758
88	0x3d72a37f	0.059237953
89	0xbe14ccd2	-0.14531258
90	0x3e56abc2	0.20963958
91	0x3cd92dfb	0.026511183
92	0x3ddf6dca	0.109096125
93	0x3e1b54ae	0.15169021
94	0xbebe4fd4	-0.3717028
95	0x3d182dbf	0.037153002
96	0x3e0e8eb4	0.13921624
97	0x3dcec3a6	0.10095911
98	0xbd4136da	-0.04717145
99	0xbed2e40e	-0.41189617
100	0x3e7b915f	0.24567173
101	0x3e292b05	0.16520317
102	0x3e21e0a3	0.15808348
103	0xbe46ff5c	-0.1943335
104	0xbdd22528	-0.10260993
105	0xbd57bc3d	-0.052669752
106	0xbbc6704d	-0.0060558678
107	0xba8ee586	-0.0010902144
108	0xbe1f7252	-0.15570953
109	0x3cb115ae	0.021616783
110	0xbc445d8a	-0.011985192
111	0x3e33dd5a	0.17564908
112	0x3d08b10e	0.033371978
113	0x3e01a13c	0.12659162
114	0xbd7ebae9	-0.06218997
115	0xbde5cdaf	-0.11220872
116	0x3d87ac8b	0.06624707
117	0xbd988489	-0.07447154
118	0xbdc60cc0	-0.096704006
119	0x3ce785a1	0.028261961
120	0x3c3c8271	0.011505709
121	0x3caad82c	0.020855032
122	0xbd96525f	-0.0733993
123	0xbe4b5e31	-0.1986015
124	0x3d929d8c	0.07158956
125	0x3d2c6b41	0.042094473
126	0xbc84ccff	-0.016211031
127	0xbd7e89e7	-0.062143233
128	0xbe4774aa	-0.19478098
129	0xbd9a138f	-0.07523262
130	0xbd870e3b	-0.06594511
131	0x3dd7b063	0.1053169
132	0xbead3ec6	-0.33836955
133	0x3e191304	0.1494866
134	0xbbf33807	-0.0074224505
135	0xbded7b98	-0.11595839
136	0xbd49f4c6	-0.0493057
137	0xbc4eb18c	-0.012615573
138	0x39825fe0	0.00024866965
139	0x3e67efc0	0.22650051
140	0x3d91776c	0.07102856
141	0x3e2c4e40	0.16826725
142	0x3e8a11fd	0.2696685
143	0xbe7142ed	-0.23560686
144	0xbe61f4b4	-0.22066003
145	0xbe3b2e2d	-0.18279333
146	0x3e073926	0.13205394
147	0xbb351771	-0.002763238
148	0xbe2c74cd	-0.16841431
149	0xbd72de35	-0.059293944
150	0xbdc92e7d	-0.0982332
151	0xbdabb078	-0.08383268
152	0x3d3acf53	0.045607876
153	0x3dd21ba9	0.10259182
154	0x3dc948aa	0.09828313
155	0x3d63cbea	0.05561439
156	0x3ccac792	0.024753366
157	0x3d3426c0	0.043982267
158	0xbd9223ce	-0.071357355
159	0xbc84ae7a	-0.016196478
160	0xbcab21da	-0.020890165
161	0x3acbe180	0.0015554875
162	0x3c983122	0.018578116
163	0xbd2ceb0e	-0.042216353
164	0xbd08e006	-0.03341677
165	0xbdad31ee	-0.08456789
166	0xbd9500fe	-0.0727558
167	0xbc9c1496	-0.019052785
168	0xbde232ee	-0.1104487
169	0xbd227225	-0.039659638
170	0x3d5293ef	0.05141061
171	0x3e0f5f0c	0.14001101
172	0x3e23294d	0.15933724
173	0x3eefc398	0.46828914
174	0xbf223b9e	-0.6337222
175	0xbee07df1	-0.43846086
176	0xbf03b80a	-0.51452696
177	0xc0018199	-2.023535
178	0x3ca50711	0.020144971
179	0x3d0690c3	0.0328529
180	0x3c9e8232	0.019349191
181	0x3e02c483	0.12770276
182	0x3e387b32	0.18015745
183	0x3c00e7a4	0.007867727
184	0xbbe5b5fc	-0.0070102196
185	0xbdc3bc36	-0.09557383
186	0xbcda6013	-0.02665714
187	0x3db87427	0.09006529
188	0x3e36cd80	0.1785183
189	0x3e63078b	0.22170846
190	0x3d98f247	0.07468086
191	0x3e038c5b	0.1284651
192	0x3dd2eb9a	0.10298844
193	0x3d49deef	0.04928487
194	0xbe8bbf86	-0.27294558
195	0xbd5ecb64	-0.054393187
196	0x3ca55fc7	0.020187272
197	0x3cf25370	0.029580802
198	0xbd9bbbe8	-0.076042
199	0x3dd89e95	0.10577122
200	0xbc9d316a	-0.019188602
201	0x3d91c47f	0.07117557
202	0xbca9fae8	-0.020749524
203	0x3baf00c2	0.0053406665
204	0x3d5979f2	0.05309481
205	0x3dfa7b31	0.12230528
206	0x3e283138	0.16425025
207	0x3ddaca66	0.10683136
208	0x3e0d0d3d	0.13774581
209	0xbdeb90d1	-0.11502231
210	0xbb9d0711	-0.004792102
211	0xbbcb7c88	-0.0062099136
212	0x3b85b490	0.0040803626
213	0x3d5b2aa1	0.05350745
214	0x3e22b699	0.15889968
215	0x3e8e5623	0.27800092
216	0xbf398603	-0.7247011
217	0xbebaca64	-0.36482537
218	0xbe797055	-0.24359258
219	0xbfd307ac	-1.6486716
220	0x3c0a585c	0.008443918
221	0x3bd05f14	0.0063589904
222	0x3d869145	0.06570677
223	0x3d51d5cc	0.051229283
224	0x3d1acd5e	0.03779351
225	0xbd0c77a3	-0.034293782
226	0xbd68d290	-0.056841433
227	0xbe0141a6	-0.12622699
228	0x3d595656	0.053060852
229	0x3ca27ac6	0.019833934
230	0x3d9360a6	0.071961686
231	0x3e160f24	0.14654213
232	0x3d9038c6	0.07042079
233	0x3dc07018	0.0939638
234	0x3d41da26	0.047327183
235	0x3e0b48aa	0.13601938
236	0x3cbba12a	0.022903997
237	0xbdc83fa7	-0.09777766
238	0xbd58b3cf	-0.052905854
239	0x3dd2f9ed	0.10301576
240	0x3b8dc8b2	0.0043269033
241	0x3e0bff6a	0.13671651
242	0xbdb51423	-0.088417314
243	0xbc616a7e	-0.0137583
244	0x3d293746	0.04131248
245	0x3df353f3	0.118812464
246	0x3ebc379b	0.36761174
247	0xbd92737e	-0.07150935
248	0x3ca321c9	0.019913571
249	0xbd37e91b	-0.04490004
250	0xbd7c5213	-0.06160171
251	0xbc9ec600	-0.019381523
252	0x3ebfbb13	0.37447414
253	0xbea74341	-0.32668498
254	0xbe8eac34	-0.27865756
255	0xbee0eefe	-0.43932337

fc1.bias f4 [64]
0	0x3d6d8ab9	0.057993624
1	0xbd0203f2	-0.031742044
2	0xbdfaf044	-0.12252858
3	0xbd88a316	-0.06671731
4	0x3e5e7fba	0.21728411
5	0x3cc81cff	0.024427889
6	0xbc9d64f5	-0.01921318
7	0x3cd0e4cd	0.025499726
8	0xbc083712	-0.008313911
9	0xbdfe943e	-0.12430619
10	0x3df5a555	0.11994425
11	0x3e0d466c	0.13796395
12	0x3e0681d3	0.13135462
13	0x3df726fb	0.12067982
14	0xbd7d8fd0	-0.06190473
15	0xbcd4c281	-0.025971653
16	0x3d5b912a	0.053605236
17	0xbe02fe82	-0.127924
18	0x38474aa1	4.75148e-05
19	0xbde50887	-0.11183267
20	0xbe1411b7	-0.14459883
21	0x3d6c0aa4	0.057627335
22	0xbd07e11e	-0.033173673
23	0xbd1bcfbf	-0.03803992
24	0xbd865e29	-0.065609284
25	0x3e41d01f	0.18927048
26	0xbd513c56	-0.05108293
27	0xbcd6986d	-0.02619573
28	0x3e32b8f5	0.17453368
29	0x3deb74dc	0.114968985
30	0xbdc809f2	-0.09767522
31	0xbdccceb7	-0.10000365
32	0x3dd4d839	0.10392804
33	0xbd3b5164	-0.045731917
34	0xbe4c4160	-0.19946814
35	0x3d8b7f5a	0.068114
36	0xbd66c754	-0.056342438
37	0x3c1c762e	0.009549661
38	0xbc33584f	-0.010946347
39	0xbdaaef7c	-0.08346459
40	0xbe141112	-0.14459637
41	0xbd0772dd	-0.033068527
42	0xbc971b99	-0.018445777
43	0x3ddfb340	0.10922861
44	0xbcd7647c	-0.026293032
45	0xbd655866	-0.055992506
46	0x3d447183	0.047959816
47	0xbdf01d45	-0.11724333
48	0xbe0d8470	-0.13820052
49	0x3da65c76	0.08123104
50	0xbe52d589	-0.2058927
51	0x3df01666	0.11723022
52	0xbd960f2c	-0.073271126
53	0xbdd2abef	-0.102867
54	0xbde633cf	-0.112403505
55	0x3da8caf8	0.08241838
56	0x3dbf314c	0.093355745
57	0xbd8d0968	-0.0688656
58	0xbdea329c	-0.11435434
59	0xbe18cec4	-0.14922625
60	0x3d53820d	0.051637698
61	0x3dd2a9da	0.10286303
62	0x3c9fce63	0.019507593
63	0x3d8a0f1b	0.067411624

fc2.weight f4 [64, 64]
0	0x3d821732	0.063520804
1	0xbe037eb7	-0.12841307
2	0x3dd50c14	0.10402694
3	0xbe621084	-0.22076613
4	0xbdd0d429	-0.10196716
5	0x3e191eab	0.14953105
6	0xbec56412	-0.3855291
7	0xbd1eb9a8	-0.038751274
8	0x3e1106d9	0.14162768
9	0x3d0346c5	0.032049913
10	0x3e2a8b80	0.16654778
11	0x3c9b6565	0.018969247
12	0x3e128183	0.14307217
13	0x3e415d38	0.18883216
14	0xbe52dd10	-0.20592141
15	0xbd7e2a48	-0.06205204
16	0xbe86b548	-0.26310182
17	0xbed3bd88	-0.41355538
18	0xbd8dc530	-0.06922376
19	0x3bd40b28	0.0064710565
20	0xbdb19459	-0.08670873
21	0xbdf23e3f	-0.11828279
22	0x3e1404d7	0.14454971
23	0xbec18f4e	-0.37804645
24	0xbd16ec08	-0.03684619
25	0xbdb38e31	-0.08767355
26	0x3e2194ea	0.15779462
27	0xbe208f88	-0.15679753
28	0x3be26ebb	0.0069101728
29	0xbe3307da	-0.17483464
30	0x3de37db6	0.11107962
31	0xbec1f7d1	-0.3788438
32	0x3c1f2d00	0.009715319
33	0x3db59517	0.08866327
34	0xbdc42c44	-0.095787555
35	0xbd7504a6	-0.059818886
36	0xbec330c7	-0.38123152
37	0x3e736cfc	0.23772043
38	0xbdb3c589	-0.08777911
39	0xbe83ab1f	-0.25716493
40	0xbee02c55	-0.43783823
41	0xbe345897	-0.1761192
42	0xbdf623f9	-0.1201858
43	0xbe6b2713	-0.22964124
44	0x3e3e9d94	0.18614799
45	0xbd8bcaee	-0.06825815
46	0xbe24bff1	-0.16088845
47	0xbe354a8f	-0.17704223
48	0xbe6735b3	-0.22579078
49	0xbe16d059	-0.14727916
50	0xbe45730e	-0.19282171
51	0x3ab9326c	0.0014129407
52	0xbd676b45	-0.056498785
53	0x3e778d46	0.24174985
54	0xbd6325a5	-0.055455822
55	0x3db1e9c3	0.08687165
56	0x3df2b0b2	0.11850108
57	0xbc582072	-0.013191329
58	0xbe918c30	-0.28427267
59	0x3e55d313	0.208813
60	0xbe6c9591	-0.2310393
61	0xbdbd48f0	-0.09242427
62	0xbe43bd6d	-0.19115229
63	0xbd4a520f	-0.049394663
64	0x3d2b3009	0.041793857
65	0x3e4d2d1c	0.20036739
66	0xbd2312c4	-0.03981282
67	0xbdd46fc0	-0.10372877
68	0x3bfea067	0.0077705863
69	0x3d4ccca1	0.049999837
70	0xbe8cfa28	-0.27534604
71	0x3e2a4e03	0.16631322
72	0x3c5a4f2f	0.013324543
73	0xbeb96e70	-0.3621707
74	0x3dbcd113	0.09219565
75	0x3debe594	0.11518398
76	0xbe43d83e	-0.19125459
77	0x3e4a36b0	0.19747424
78	0xbd95b85a	-0.07310553
79	0xbd3e58f5	-0.046471555
80	0x3b1a8931	0.0023580308
81	0xbb715b26	-0.003682801
82	0xbde7c78c	-0.113173574
83	0xbd99500e	-0.07485972
84	0x3d672ee4	0.056441203
85	0xbd782277	-0.060579743
86	0xbdb2cb61	-0.08730198
87	0xbe3b2642	-0.18276313
88	0xbd829056	-0.06375186
89	0xbda34ab2	-0.079732314
90	0x3d99038d	0.074713804
91	0xbeefc0e9	-0.46826866
92	0x3d93a28a	0.07208736
93	0xbe854184	-0.26026547
94	0x3dda53b5	0.10660497
95	0xbe595269	-0.21222843
96	0xbc5c0009	-0.013427743
97	0xbcebb85a	-0.02877443
98	0xbe3c39af	-0.1838138
99	0xbeaaa25d	-0.33326998
100	0xbe8ed462	-0.2789641
101	0x3e61268e	0.21987364
102	0x3db100a4	0.086427
103	0xbe2b4b71	-0.16727997
104	0xbe0739a9	-0.1320559
105	0x3d012a78	0.031534642
106	0xbe48b162	-0.19598916
107	0xbe3230da	-0.17401448
108	0xbe00d1d5	-0.12580045
109	0xbc80d1f7	-0.015725119
110	0xbdfb02fd	-0.12256429
111	0xbd569bf1	-0.05239481
112	0xbe3f42b6	-0.18677792
113	0x3d1795a2	0.037007935
114	0xbd3f1ba8	-0.046657234
115	0x3df6c961	0.12050129
116	0x3ddc598b	0.107592665
117	0x3ecd365e	0.4008054
118	0xbde4ed0b	-0.11178025
119	0x3dfc4448	0.12317711
120	0xbbf963d5	-0.007610778
121	0x3d0eaa74	0.034830526
122	0xbe0922e5	-0.13392217
123	0x3e25cddc	0.1619181
124	0xbe53fcd9	-0.20701922
125	0xbd556a61	-0.052103404
126	0xb8d3eb5c	-0.00010105103
127	0xbd8f649c	-0.070016116
128	0xbd7ee35a	-0.062228538
129	0xbc96b993	-0.018399036
130	0x3dba5a3d	0.09099243
131	0x3c35fbde	0.011107413
132	0xbe924b88	-0.2857325
133	0xbdb25fcc	-0.08709678
134	0xbf0e74d8	-0.5564704
135	0x3c5db813	0.013532656
136	0xbe02621a	-0.12732735
137	0xbe01e0bc	-0.12683386
138	0x3ecc05a1	0.39848045
139	0xbe688bec	-0.22709626
140	0x3ddc5453	0.10758271
141	0x3e619483	0.22029309
142	0xbcd11f96	-0.025527757
143	0xbe178beb	-0.14799468
144	0xbdcdc89c	-0.10048029
145	0xbdbb0ab8	-0.09132904
146	0xbca0741a	-0.019586612
147	0xbdeceed6	-0.11568992
148	0xbd9756c9	-0.073896
149	0x3bef4483	0.0073018684
150	0xbe9c16de	-0.30486196
151	0xbe2f8c75	-0.17143424
152	0xbe037752	-0.12838486
153	0x3d816559	0.06318159
154	0x3e526944	0.20547968
155	0xbcc123ac	-0.02357658
156	0xbdb4fbd7	-0.08837097
157	0xbdd8c2ef	-0.10584056
158	0xbc8e018d	-0.017334724
159	0xbd7294b1	-0.059223834
160	0xbd96b35d	-0.073584296
161	0x3c201d21	0.00977257
162	0xbe5f1289	-0.21784414
163	0x3d0c20ac	0.034210846
164	0x3e2eaae8	0.17057383
165	0xbd83b14b	-0.064303
166	0x3ec71d86	0.38889712
167	0xbd3312f5	-0.04371925
168	0x3d84d0d1	0.06485141
169	0x3d071183	0.032975685
170	0xbd8bce8f	-0.06826507
171	0xbc31e7e3	-0.010858509
172	0x3deb2eed	0.1148356
173	0xbe7ca3c2	-0.24671844
174	0x3d68f7d5	0.056876976
175	0x3e00dbe7	0.12583886
176	0x3ae685f9	0.0017587534
177	0x3cb9d334	0.022683717
178	0xbca230d8	-0.019798681
179	0x3c1a6b5c	0.0094250105
180	0xbe61ac84	-0.22038466
181	0x3cdf18ea	0.02723356
182	0xbcb6c246	-0.022309434
183	0xbe5222ca	-0.20521083
184	0xbd6104d5	-0.05493625
185	0xbe4e5395	-0.20149072
186	0x3d629752	0.05532009
187	0x3d499dd5	0.049222786
188	0xbe850152	-0.2597757
189	0xbda79f2b	-0.08184656
190	0x3d3e7d72	0.046506353
191	0x3e0cea85	0.13761337
192	0xbe101fa1	-0.14074565
193	0xbe1fd232	-0.15607527
194	0xbd955d5f	-0.072932
195	0xbe1e721d	-0.15473218
196	0xbe2e3924	-0.17013985
197	0xbd385ef8	-0.045012444
198	0xbea154a8	-0.315099
199	0xbc5be5e3	-0.0134215085
200	0xbcb618a1	-0.02222854
201	0x3d1c138b	0.038104575
202	0xbe0dd74c	-0.1385166
203	0x3e4f8679	0.20266141
204	0x3b4fbef8	0.003169952
205	0xbdc4256e	-0.09577452
206	0xbdfe62b5	-0.124211706
207	0xbe8b9a13	-0.27265987
208	0xbcbf6ec2	-0.023368243
209	0x3dd7a8ff	0.1053028
210	0xbdbe5aca	-0.092946604
211	0xbe27acb3	-0.16374473
212	0x3d5c624c	0.05380468
213	0xbbe3f322	-0.006956474
214	0x3d7033c1	0.058643106
215	0xbe40e272	-0.18836382
216	0x3e2984f8	0.1655463
217	0x3d8d09c4	0.06886628
218	0x3e2e92e5	0.17048223
219	0x3d43f447	0.047840383
220	0x3de2ce7d	0.11074541
221	0x3d10f661	0.035391215
222	0x3dfd8c42	0.12380268
223	0x3bb6490c	0.005562907
224	0xbdaa6e82	-0.08321859
225	0x3c5c3826	0.013441121
226	0xbdc82029	-0.09771759
227	0x3d923f58	0.07140988
228	0xbba45bc6	-0.005015823
229	0xbd9827ec	-0.074294895
230	0xbe5ac4ca	-0.21364132
231	0xbda2d03b	-0.07949873
232	0xbd2353ad	-0.03987472
233	0xbe54932b	-0.20759265
234	0xbe090602	-0.13381198
235	0xbcaaba20	-0.020840704
236	0xbddea3f1	-0.10871113
237	0xbc02b1cc	-0.00797696
238	0x3c3f64af	0.01168172
239	0x3d3efbc1	0.04662681
240	0xbc13da00	-0.009024143
241	0x3c4f1353	0.012638885
242	0xbdb96326	-0.09052114
243	0x3db099dc	0.08623096
244	0x3c8ba68b	0.017047187
245	0x3e68785c	0.22702163
246	0xbd2f1361	-0.04274309
247	0x3c50d2ce	0.012745572
248	0xbe23356e	-0.1593835
249	0xbb3367bd	-0.0027375065
250	0xbdc2a4fd	-0.09504125
251	0x3c008674	0.007844556
252	0xbe3e4345	-0.18580349
253	0x3e99246d	0.29910603
254	0xbde99ac9	-0.11406476
255	0xbe1cee7a	-0.15325347

fc2.bias f4 [64]
0	0xbd2376ad	-0.0399081
1	0xbe163f65	-0.1467262
2	0xbc282b40	-0.010264218
3	0x3d87c51d	0.06629393
4	0x3dda72d3	0.10666432
5	0xbe4825b6	-0.19545636
6	0xbd603b7f	-0.05474424
7	0x3d18705b	0.037216526
8	0x34a2e847	3.0343855e-07
9	0x3d08b109	0.03337196
10	0xbdc67e46	-0.096920535
11	0x3defd07a	0.117096856
12	0x3d9edd3e	0.07757042
13	0xbdace940	-0.084429264
14	0xbd5211f6	-0.05128666
15	0x3c35f60b	0.0111060245
16	0x3c24b1f4	0.010052193
17	0x3cb50db2	0.022101257
18	0xbdad0524	-0.08448246
19	0x3e01e0d5	0.12683423
20	0x3e8fb1f0	0.28065443
21	0x3dff7a1b	0.12474462
22	0x3e67063a	0.22560969
23	0xbd9441b6	-0.07239096
24	0xbdc01878	-0.09379667
25	0xbddf3bf4	-0.10900107
26	0x3d9766e4	0.07392672
27	0xbd72e70c	-0.059302375
28	0x3b53c11f	0.0032311154
29	0x3dbfc38d	0.0936347
30	0x3d18a17b	0.037263375
31	0xbcf30273	-0.029664254
32	0xbba1df0e	-0.0049399203
33	0x3d93503f	0.0719304
34	0x3db9b67a	0.09068008
35	0xbd063a39	-0.03277037
36	0xbdcad83e	-0.09904526
37	0xbe18140c	-0.14851397
38	0xbdb7a31d	-0.08966658
39	0xbd937546	-0.072001025
40	0xbd8afeae	-0.067868575
41	0x3e1141da	0.14185277
42	0xb9edf7df	-0.0004538884
43	0xbce4cebf	-0.027930615
44	0x3d112144	0.035432115
45	0xbca21889	-0.01978709
46	0xbe4c3877	-0.19943415
47	0xbe054325	-0.13013895
48	0x3dd6797d	0.10472391
49	0xbe2e465a	-0.17019024
50	0xbd6ee9e2	-0.058328517
51	0x3e3a52fb	0.18195717
52	0xbca366b3	-0.019946432
53	0xbcb1581a	-0.021648455
54	0xbe0795da	-0.13240758
55	0xbe1c0781	-0.15237238
56	0xbe24ae6c	-0.16082162
57	0xbd518e46	-0.051161073
58	0x3df6f000	0.12057495
59	0xbdb60781	-0.0888815
60	0xbccbf8ec	-0.024898969
61	0x3e176f6b	0.14788596
62	0x3dc0d063	0.094147466
63	0xbe1fb8da	-0.15597859

fc3.weight f4 [4, 64]
0	0xbd73f4a8	-0.059559494
1	0x3dae63e8	0.08515149
2	0x3d317e0c	0.0433331
3	0xbda6c208	-0.08142477
4	0x3dbfefc0	0.093719006
5	0xbd82bfea	-0.06384261
6	0x3df314e0	0.11869216
7	0xbdcc5250	-0.09976637
8	0x3d84b138	0.06479114
9	0xbbe8db00	-0.007106185
10	0xbddd966e	-0.10819708
11	0x3d847604	0.06467822
12	0xbd3be8c8	-0.045876294
13	0x3b0e8ec0	0.0021752566
14	0xbd1c5030	-0.03816241
15	0xbce4e7b0	-0.027942508
16	0xbd0309f0	-0.0319919
17	0x3d65db24	0.056117192
18	0xbc256930	-0.010095879
19	0x3daee8fe	0.085405335
20	0x3d4ed168	0.050492674
21	0xba419500	-0.00073845685
22	0x3d4d43f4	0.050113633
23	0xbd2c3be0	-0.04204929
24	0xbdc545b6	-0.09632437
25	0xbda8a030	-0.08233678
26	0xbdaf4e3c	-0.08559844
27	0xbdcea828	-0.10090667
28	0x3ca3d7b0	0.020000309
29	0xbc3639a0	-0.011122137
30	0xbde6314a	-0.1123987
31	0x3d84d5e0	0.06486106
32	0x3d9ea374	0.0774602
33	0x3dd97774	0.10618487
34	0x3ba7f620	0.005125776
35	0xbc15f0b0	-0.009151623
36	0x3d969226	0.07352094
37	0xbdde01ba	-0.10840173
38	0x3bfd3480	0.0077272058
39	0x3da784f8	0.08179659
40	0x3db12a94	0.08650699
41	0x3c715310	0.014729276
42	0xbc29d6e0	-0.010366172
43	0x3d36f410	0.04466635
44	0x3cd9aec0	0.026572585
45	0xbb898620	-0.004196897
46	0x3dcac662	0.0990112
47	0x3dda87bc	0.106704205
48	0xbd916de6	-0.071010396
49	0x3de66366	0.112494275
50	0xbd05a9c0	-0.03263259
51	0x3cdc4db8	0.026892528
52	0x3de400d0	0.111329675
53	0xbd71f04c	-0.059067056
54	0x3d6efb2c	0.058345005
55	0xbc8b9e18	-0.017043158
56	0xbd90dd3c	-0.07073447
57	0xbbf95de0	-0.0076100677
58	0x3ddad58c	0.10685262
59	0x3d8edc30	0.06975591
60	0xbd846346	-0.064642474
61	0x3de7b9ba	0.113147214
62	0x3cd05210	0.025429755
63	0x3dda8196	0.10669248
64	0x3df37ff4	0.118896395
65	0xbd150f48	-0.036391526
66	0x3dcc6150	0.099794984
67	0xbc97c978	-0.018528685
68	0x3ca1a538	0.019732103
69	0x3b853fe0	0.0040664524
70	0x3ae18480	0.0017205626
71	0xbc1ee950	-0.009699181
72	0xbdeaa5cc	-0.114574045
73	0x3c323140	0.010876
74	0x3deae772	0.11469926
75	0x3d27ef10	0.040999472
76	0xbdec8b2c	-0.115499824
77	0x3cbf2a10	0.023335487
78	0xbca5de60	-0.020247638
79	0x3d16ec9c	0.036846742
80	0xbdeb195a	-0.11479445
81	0x3cab2df8	0.020895943
82	0xbdb6f518	-0.08933467
83	0x3c91b438	0.01778613
84	0x3d9a143e	0.07523392
85	0x3db338c0	0.087510586
86	0xbca939e0	-0.02065748
87	0x3de367e8	0.11103803
88	0xbbf0eca0	-0.0073524266
89	0xbd9356d0	-0.071942925
90	0x3d6f4fa8	0.058425575
91	0x3bb166e0	0.005413875
92	0xbdc9faf0	-0.09862316
93	0x3da2c458	0.07947606
94	0x3df6b66a	0.120465115
95	0x3d8c2db4	0.06844655
96	0xbca30ed0	-0.019904524
97	0xbdd6c6ca	-0.10487135
98	0x3ddb51c4	0.10708955
99	0xbd8857aa	-0.066573456
100	0x3c9a3e60	0.01882857
101	0xbde7a222	-0.11310221
102	0x3d9dec10	0.07711041
103	0x3ccd9540	0.025095582
104	0x3df3b4f0	0.118997455
105	0x3d7877b4	0.060661033
106	0xbdf47dc0	-0.119380474
107	0x3dca4b80	0.09877682
108	0xbdcee022	-0.10101344
109	0xbd74b4bc	-0.059742674
110	0x3d842d98	0.06454009
111	0xbd8b53e0	-0.06803107
112	0x3d0641d4	0.032777622
113	0x3c52ef80	0.012874484
114	0x3c1114b0	0.00885503
115	0xbd8b0b62	-0.067892805
116	0x3db329b8	0.087481916
117	0x3c933198	0.017967984
118	0x3d3e1700	0.046408653
119	0x3c6e76e0	0.014554709
120	0xbd7eb490	-0.062183917
121	0xbd407170	-0.046983182
122	0x3daa6878	0.08320707
123	0xbddfa3dc	-0.109199256
124	0xbd30f4bc	-0.043202147
125	0xbdea56ce	-0.11442338
126	0xbd990bb0	-0.07472932
127	0x3c899cc8	0.016798392
128	0xbce947e0	-0.028476655
129	0x3d2a9e28	0.041654736
130	0x3dc310c2	0.09524681
131	0x3cd762b0	0.026292175
132	0x3df321c2	0.11871673
133	0xb9ad2400	-0.00033023953
134	0x3df6f9a4	0.12059334
135	0x3ca53518	0.020166919
136	0xbb524400	-0.0032083988
137	0x3d0f1950	0.03493625
138	0xbdc9d8f6	-0.09855835
139	0x3dd0c274	0.10193339
140	0x3dea3cc6	0.11437373
141	0xbde124a2	-0.10993315
142	0xbd985c66	-0.074394986
143	0x3dca53d0	0.09879267
144	0x3d00b19c	0.03141938
145	0xbd391988	-0.045190364
146	0xbd7f19d4	-0.06228049
147	0xbcea9fc0	-0.028640628
148	0xbcc0bc38	-0.02352725
149	0x3dec2834	0.11531106
150	0xbd9ba730	-0.07600248
151	0x3c9002f8	0.01757954
152	0x3d111f68	0.035430342
153	0xbd7df738	-0.062003344
154	0xbbff6360	-0.007793829
155	0xbcb91f68	-0.022597983
156	0x3dc3536e	0.09537397
157	0x3db729f8	0.08943552
158	0xbbc59c20	-0.0060305744
159	0xbd833074	-0.06405726
160	0xbd92f89a	-0.07176323
161	0xbd59fb6c	-0.05321829
162	0x3dde1516	0.108438656
163	0x3dd01a9e	0.10161327
164	0x3ccb9d60	0.024855316
165	0xbdee8596	-0.11646573
166	0x3d238210	0.03991896
167	0xbcbe50e8	-0.023231938
168	0x3d8f21e4	0.06988886
169	0x3d850f22	0.06497027
170	0x3dd6c3d8	0.10486573
171	0x3c152190	0.00910224
172	0x3c1cbb60	0.009566158
173	0x3a6d7a00	0.0009059012
174	0x3db0dc98	0.08635825
175	0x3dc14e00	0.094387054
176	0x3d713d80	0.05889654
177	0xbcccc1d0	-0.02499476
178	0xbd14a474	-0.036289647
179	0x3ded3b52	0.1158358
180	0xbd846d30	-0.06466138
181	0x3cb02298	0.02150087
182	0x3d20f9ec	0.039300844
183	0x3d8490c6	0.06472926
184	0xbd9b4546	-0.07581572
185	0xbcc5b0b0	-0.024132103
186	0xbb6f4a40	-0.0036512762
187	0xbc3ace70	-0.011401758
188	0xbddbb658	-0.10728139
189	0x3d5cedec	0.053937837
190	0xbdc3bca8	-0.09557468
191	0xbd014ae0	-0.031565547
192	0x3d1cf098	0.038315386
193	0x3dc94bac	0.098288864
194	0xbcb218c8	-0.021740332
195	0xbd8dbd9c	-0.06920931
196	0xbd64502c	-0.05574052
197	0xba96b880	-0.0011499077
198	0xbd8bf402	-0.0683365
199	0x3cfcfc20	0.030881941
200	0x3d677b2c	0.05651395
201	0x3df19a34	0.1179699
202	0x3dd74896	0.105118915
203	0xbcd14730	-0.02554664
204	0x3d599f30	0.05313033
205	0x3c8658e0	0.0163998
206	0x3d72be00	0.05926323
207	0xbd68baec	-0.056818888
208	0x3df07072	0.11740197
209	0x3a59e600	0.0008312166
210	0x3da2241a	0.07917042
211	0x3dbdde2c	0.092708915
212	0xbcd8e828	-0.026477888
213	0x3dc429f6	0.09578316
214	0xbd0480a0	-0.03234923
215	0x3d7eb4f4	0.06218429
216	0xbc9eed30	-0.01940021
217	0xbdca7384	-0.09885314
218	0xbd0285ec	-0.031866
219	0x3d426d48	0.0474675
220	0x3dcc7e58	0.09985036
221	0xbdd0e524	-0.10199955
222	0xbd948e48	-0.072537005
223	0x3d856c86	0.0651484
224	0xbd82c7d2	-0.06385769
225	0x3bd57120	0.0065137297
226	0xbdb2949a	-0.0871975
227	0x3c016050	0.007896498
228	0xbd77bc98	-0.06048259
229	0x3ce4b108	0.027916446
230	0x3d49e204	0.04928781
231	0x3cc461f8	0.023972496
232	0xbdc95440	-0.098305225
233	0x3dbff0a8	0.093720734
234	0x3dd77bf2	0.105216876
235	0xbde58a86	-0.11208062
236	0x3dd1abde	0.10237859
237	0xbddca54a	-0.10773714
238	0x3d70aba8	0.058757454
239	0xbbf1e680	-0.007382214
240	0xbc23ae10	-0.00999023
241	0xbd794c4c	-0.060863778
242	0x3dc99bb6	0.09844153
243	0x3ca57dd0	0.020201594
244	0xbc0e67d0	-0.008691743
245	0xbb90e1a0	-0.004421428
246	0x3db98ca8	0.09060031
247	0x3dfdab14	0.12386146
248	0xbd91d69a	-0.0712101
249	0xbde30f6e	-0.11086927
250	0xbdad3076	-0.08456509
251	0xbd8afee6	-0.06786899
252	0xbdd12588	-0.10212237
253	0xbd38c660	-0.04511106
254	0xbd4612bc	-0.04835771
255	0xba6a4600	-0.00089368224

fc3.bias f4 [4]
0	0x3d1204b4	0.035649016
1	0x3da47132	0.08029403
2	0xbda8e8fa	-0.08247562
3	0xbdb76c80	-0.089562416

value_fuction_func.weight f4 [1, 64]
0	0xbebdea69	-0.37092903
1	0xbe3194d6	-0.17341933
2	0x3e9c70bc	0.3055476
3	0x3c956d95	0.01824073
4	0x3e00c7c8	0.1257621
5	0xbd6e298b	-0.058145087
6	0xbe13d4f2	-0.14436701
7	0xbd486cd8	-0.048931926
8	0x3d3666db	0.044531684
9	0xbe52f0e2	-0.20599702
10	0xbe410d4f	-0.18852733
11	0x3e9a65df	0.30155846
12	0x3e247870	0.16061568
13	0x3df8598a	0.12126453
14	0x3dc9c9ed	0.098529674
15	0x3ebf4195	0.37354723
16	0xbe8d4d1d	-0.27597895
17	0x3d1c3281	0.0381341
18	0xbe865d1b	-0.2624291
19	0x3e100927	0.14065991
20	0x3e286fae	0.16448852
21	0x3eaf2496	0.342076
22	0x3e79a373	0.24378757
23	0xbe4547dc	-0.19265693
24	0x3eb30c7f	0.3497047
25	0xbd02af09	-0.031905208
26	0x3e35c4a6	0.17750797
27	0xbe070801	-0.13186647
28	0x3e3c892b	0.184117
29	0xbca83453	-0.020532763
30	0xbf0936aa	-0.53599036
31	0x3e30aaef	0.17252706
32	0x3eb45239	0.3521898
33	0x3e854e8a	0.26036483
34	0x3e4783f2	0.19483927
35	0x3e7ec1ff	0.24878691
36	0x3f047e03	0.5175478
37	0xbe7c36cb	-0.24630277
38	0xbe6eac6c	-0.23307961
39	0xbde92496	-0.11383931
40	0x3e71d37b	0.2361583
41	0x3d0ccf5d	0.034377445
42	0x3b090b1d	0.0020911165
43	0x3e8fb0e4	0.28064644
44	0x3d0975bd	0.03355955
45	0x3ebaa52f	0.3645415
46	0x3ebdc8d7	0.3706729
47	0x3eae0e9e	0.33995527
48	0x3e0eaa1c	0.13932079
49	0x3e75bcf7	0.23997866
50	0x3edbbb5d	0.42916384
51	0x3e14c45c	0.1452803
52	0xbd899bbc	-0.06719157
53	0x3da72ee4	0.081632406
54	0x3ecf714d	0.4051613
55	0x3d485584	0.04890968
56	0x3ebef7fc	0.37298572
57	0xbdd49947	-0.10380798
58	0x3e859666	0.26091307
59	0xbd86b98b	-0.06578358
60	0xbe974d69	-0.29551247
61	0x3e0e3f32	0.13891295
62	0xbda2ca8f	-0.07948791
63	0xbe475f9a	-0.19470063

advantage_function_func.weight f4 [4, 64]
0	0xbed9a986	-0.4251215
1	0x3e6e8827	0.23294125
2	0x3e5206b2	0.20510367
3	0x3e5739b9	0.21018113
4	0x3d86feca	0.06591566
5	0xbe121479	-0.14265622
6	0x3e78ecb4	0.24309045
7	0xbe03995b	-0.12851469
8	0x3da3f9a7	0.08006602
9	0xbd8a30d8	-0.067475975
10	0xbd2abb9e	-0.041682832
11	0x3df36a5c	0.11885521
12	0x3e92c039	0.2866228
13	0xbe77747c	-0.24165529
14	0xbe03dbd8	-0.12876832
15	0xbd8d3fa2	-0.068969026
16	0x3e2edda9	0.17076744
17	0xbc689707	-0.014196164
18	0xbd862dc0	-0.06551695
19	0x3daa6f14	0.08321968
20	0x3d7dae8a	0.06193403
21	0xbd48264c	-0.048864648
22	0x3d985f90	0.07440102
23	0x3d9a7e59	0.0754363
24	0x3e856c4c	0.26059186
25	0x3cb27ed8	0.021789
26	0x3deb2813	0.11482253
27	0x3ebaa159	0.36451223
28	0xbd1dd884	-0.038536564
29	0xbe2342f1	-0.15943505
30	0xbe9a939d	-0.30190745
31	0x3e100610	0.14064813
32	0x3d0b075a	0.033942558
33	0x3e06a8ec	0.13150376
34	0x3ce8d576	0.028422099
35	0x3dc11115	0.09427086
36	0x3ddb29d1	0.10701335
37	0x3d47ce6d	0.048780847
38	0x3c15dff8	0.009147637
39	0xbe12dde8	-0.14342463
40	0x3db969b2	0.09053363
41	0x3e6603aa	0.22462335
42	0xbe21af88	-0.15789616
43	0x3dd318ca	0.103074625
44	0xbc280635	-0.010255386
45	0x3eab1e5e	0.33421606
46	0xbe97fd93	-0.2968565
47	0x3df8340f	0.121193044
48	0xbca9c81b	-0.0207253
49	0xbe782937	-0.24234472
50	0xbce034f2	-0.027368996
51	0xbdedc733	-0.1161026
52	0x3df03850	0.11729491
53	0x3deae9e1	0.1147039
54	0x3e1ac4ba	0.15114108
55	0xbe066da1	-0.13127758
56	0xba4007d2	-0.0007325384
57	0x3e8e59b6	0.2780282
58	0x3dfd6e6b	0.12374576
59	0x3e06a744	0.13149744
60	0xbe3f1f6e	-0.18664333
61	0x3e583004	0.21112067
62	0x3e6cd61c	0.23128551
63	0x3bc54340	0.0060199797
64	0x3ef08f83	0.4698449
65	0x3d1d0800	0.038337708
66	0x3e2a0788	0.16604435
67	0x3e505527	0.20344983
68	0xbb9b6bb4	-0.004743064
69	0xbdd6faf5	-0.10497085
70	0x3e82518b	0.25452837
71	0x3dcf3b66	0.10118751
72	0x3d948adb	0.07253047
73	0xbcdcff4e	-0.026977208
74	0x3d2ec4fe	0.042668335
75	0x3e26ad78	0.1627711
76	0x3e202f7e	0.15643117
77	0xbded403e	-0.11584519
78	0xbe1d3cb1	-0.15355183
79	0x3e9722f8	0.29518867
80	0x3e7507f5	0.23928817
81	0x3cfc17aa	0.030773003
82	0x3dc77db4	0.09740773
83	0xbca09d94	-0.01960639
84	0x3da04807	0.07826238
85	0xbcae66d9	-0.021289276
86	0x3d15dbf7	0.036586728
87	0x3e32d457	0.17463814
88	0xbe4d8dac	-0.20073575
89	0x3c50f06a	0.012752632
90	0x3cbdd11e	0.023171004
91	0x3e8ca102	0.2746659
92	0xbc14f959	-0.009092652
93	0x3de734d6	0.112893745
94	0x3ea06abe	0.31331438
95	0x3ded338f	0.115821
96	0x3e86b608	0.26310754
97	0x3e048368	0.12940753
98	0x3d0fe8b8	0.035134047
99	0x3dc43acb	0.09581526
100	0x3e37c1c2	0.17945006
101	0xbe282ab1	-0.16422535
102	0x3d04625f	0.032320376
103	0xbcfa4961	-0.030552568
104	0x3d324c1b	0.04352961
105	0x3e49afee	0.19696018
106	0xbdd2e560	-0.10297656
107	0x3e40d09b	0.18829577
108	0x3d8275bc	0.06370112
109	0x3de4d441	0.11173297
110	0x3f002d81	0.50069433
111	0xbd94f422	-0.07273127
112	0x3d1aefcb	0.03782634
113	0xbe2c0a93	-0.16800909
114	0x3ecc4f1b	0.39904103
115	0x3d88389d	0.06651423
116	0x3e18e0b3	0.14929466
117	0xbd524756	-0.051337563
118	0xb967df19	-0.00022112987
119	0x3dd10257	0.102055244
120	0x3e1ee677	0.15517603
121	0x3d03b9bb	0.03215955
122	0x3db2bc2d	0.08727298
123	0xbcd86925	-0.026417324
124	0x3cc1796c	0.023617469
125	0x3d934f2a	0.07192834
126	0x3e600b9a	0.21879426
127	0xbc1b8766	-0.009492731
128	0x3d3e48bd	0.046456087
129	0x3e9cd9f5	0.30635038
130	0x3e849589	0.25895336
131	0xbd2a89c8	-0.041635305
132	0x3c9d9e11	0.019240411
133	0x3e2a3582	0.16621974
134	0xbee2515d	-0.442027
135	0x3e88da8c	0.26729238
136	0xbd7dc8f3	-0.06195922
137	0xbe255f28	-0.1614958
138	0xbe4b9633	-0.19881515
139	0x3dc5e62b	0.09663042
140	0xbea6eb0e	-0.32601207
141	0x3e58d370	0.21174407
142	0x3db06782	0.086134925
143	0xbeac49a6	-0.3364994
144	0xbe9e14e3	-0.3087531
145	0xbe8fc2d5	-0.28078333
146	0x3eae87b2	0.34087902
147	0xbd26c478	-0.04071471
148	0xbd315126	-0.04329028
149	0x3d2b3899	0.041802023
150	0x3d35f316	0.044421278
151	0xbea88e4f	-0.32921073
152	0x3df41a6b	0.11919101
153	0x3e23f553	0.16011553
154	0x3e8056fb	0.2506636
155	0xbf17d756	-0.5931295
156	0x3db49482	0.08817388
157	0x3e17cb6e	0.14823696
158	0xbe4f5a20	-0.20249224
159	0xbcb653df	-0.02225679
160	0x3e8dc32b	0.27687964
161	0xbbbf79a4	-0.005843358
162	0xbcb294a9	-0.021799402
163	0x3ea9367a	0.33049375
164	0x3d0454c6	0.03230741
165	0xbda122e1	-0.07867981
166	0xbe7723c0	-0.24134731
167	0x3dce0ebe	0.100614056
168	0x3e4bb751	0.19894148
169	0xbcef5675	-0.02921603
170	0x3d319f44	0.04336478
171	0xbe14e683	-0.14541058
172	0x3e662602	0.22475436
173	0x3ead05e1	0.33793548
174	0xbed35327	-0.41274378
175	0x3ea1f15f	0.31629464
176	0x3e2934ab	0.16523997
177	0x3ec1c8a5	0.37848392
178	0x3ec20372	0.37893254
179	0xbd169b47	-0.036769178
180	0x3e08776f	0.1332681
181	0x3e19b488	0.15010273
182	0x3dac3612	0.084087506
183	0x3de074f3	0.10959806
184	0x3ee295a7	0.442548
185	0xbee19c5e	-0.4406461
186	0x3d2d2db1	0.042279903
187	0xbdf405f2	-0.119151965
188	0xbdf27b8e	-0.118399724
189	0x3d650164	0.05590953
190	0xbe35eaa7	-0.17765294
191	0xbe49cd71	-0.19707276
192	0xbdba10d6	-0.090852425
193	0xbec5342a	-0.3851636
194	0x3c2d9285	0.010594015
195	0x3bb050a5	0.0053807073
196	0x3df3ee2e	0.119106635
197	0x3e5b146c	0.21394509
198	0xbc231851	-0.009954528
199	0x3cdd01c1	0.026978375
200	0xbe8a442d	-0.2700514
201	0x3d813b5c	0.0631015
202	0xbc910685	-0.017703304
203	0x3e020ad2	0.1269944
204	0x3c994d6c	0.018713675
205	0xbbc80080	-0.006103575
206	0x3ccc56fa	0.024943817
207	0x3eeca975	0.46223035
208	0xbe9017f6	-0.2814328
209	0xbeb0045b	-0.34378323
210	0xbe52cfae	-0.20587036
211	0xbe015522	-0.12630132
212	0xbd721389	-0.05910066
213	0x3d9fde72	0.078061
214	0x3e2a7d63	0.16649394
215	0x3dcadfed	0.09905992
216	0xbe96d471	-0.29458955
217	0xbe21d144	-0.15802485
218	0x3e9ce54c	0.3064369
219	0xbc6be53a	-0.014397914
220	0x3d8584f1	0.06519497
221	0x3d060721	0.032721642
222	0x3e470d99	0.19438781
223	0xbda1b473	-0.07895746
224	0xbe69724a	-0.22797504
225	0x3e64706a	0.22308508
226	0x3e06f0f4	0.13177854
227	0xbed2712b	-0.41101965
228	0x3e9bfd51	0.30466703
229	0x3cdc63a1	0.026902976
230	0x3d57ad3b	0.05265544
231	0x3d61b4ff	0.055104252
232	0x3da8dab7	0.082448415
233	0x3ddc1948	0.107470095
234	0xbd8e5509	-0.06949813
235	0x3eafed3f	0.34360692
236	0x3c809582	0.01569629
237	0xb9a0ba77	-0.00030656505
238	0xbb462d10	-0.0030239262
239	0xbe704cf6	-0.23466858
240	0xbd9de58c	-0.07709798
241	0xbe7eb120	-0.24872255
242	0xbec78aa2	-0.38972956
243	0x3e67c734	0.22634584
244	0xbdfc87b8	-0.12330574
245	0x3d126c81	0.03574801
246	0x3ecb7342	0.39736372
247	0x3dc406ce	0.095716104
248	0xbe23c7d7	-0.15994202
249	0x3f0b6568	0.5445161
250	0xbd8e24bb	-0.069405995
251	0xbdc25f2f	-0.09490811
252	0xbe0a5479	-0.13508786
253	0x3e39675b	0.18105833
254	0x3dc14dfd	0.09438703
255	0x3da372eb	0.07980903

advantage_function_func.bias f4 [4]
0	0x3e5725ce	0.21010515
1	0x3e059580	0.13045311
2	0x3e7851c4	0.24249941
3	0x3e1b3ba8	0.15159476
